…
stagelr: 0.0001
stageiter: 200
stageiter: 4000
stageiter: 6000
stageiter: 10000
stageiter: 200000
stageiter: 300000
stageiter: 380000
I0523 17:56:45.397702 30991 solver.cpp:87] Creating training net from net file: ../models/pvanet-yolo-64-fc-2/pvanet_half_train_val_4_4.prototxt
I0523 17:56:45.399740 30991 net.cpp:51] Initializing net from parameters: 
name: "PVANET_ImageNet"
state {
  phase: TRAIN
}
layer {
  name: "data"
  type: "Python"
  top: "data"
  top: "label"
  python_param {
    module: "boxdatalayer"
    layer: "BoxDataLayer"
  }
}
layer {
  name: "conv1_1/conv"
  type: "Convolution"
  bottom: "data"
  top: "conv1_1/conv"
  param {
    lr_mult: 1
    decay_mult: 1
  }
  convolution_param {
    num_output: 8
    bias_term: false
    weight_filler {
      type: "xavier"
    }
    pad_h: 3
    pad_w: 3
    kernel_h: 7
    kernel_w: 7
    stride_h: 2
    stride_w: 2
  }
}
layer {
  name: "conv1_1/bn"
  type: "BatchNorm"
  bottom: "conv1_1/conv"
  top: "conv1_1/conv"
}
layer {
  name: "conv1_1/neg"
  type: "Power"
  bottom: "conv1_1/conv"
  top: "conv1_1/neg"
  power_param {
    power: 1
    scale: -1
    shift: 0
  }
}
layer {
  name: "conv1_1/concat"
  type: "Concat"
  bottom: "conv1_1/conv"
  bottom: "conv1_1/neg"
  top: "conv1_1"
}
layer {
  name: "conv1_1/scale"
  type: "Scale"
  bottom: "conv1_1"
  top: "conv1_1"
  param {
    lr_mult: 1
    decay_mult: 0
  }
  param {
    lr_mult: 2
    decay_mult: 0
  }
  scale_param {
    bias_term: true
  }
}
layer {
  name: "conv1_1/relu"
  type: "ReLU"
  bottom: "conv1_1"
  top: "conv1_1"
}
layer {
  name: "pool1"
  type: "Pooling"
  bottom: "conv1_1"
  top: "pool1"
  pooling_param {
    pool: MAX
    kernel_size: 3
    stride: 2
    pad: 0
  }
}
layer {
  name: "conv2_1/1/conv"
  type: "Convolution"
  bottom: "pool1"
  top: "conv2_1/1"
  param {
    lr_mult: 1
    decay_mult: 1
  }
  convolution_param {
    num_output: 12
    bias_term: false
    weight_filler {
      type: "xavier"
    }
    pad_h: 0
    pad_w: 0
    kernel_h: 1
    kernel_w: 1
    stride_h: 1
    stride_w: 1
  }
}
layer {
  name: "conv2_1/1/bn"
  type: "BatchNorm"
  bottom: "conv2_1/1"
  top: "conv2_1/1"
}
layer {
  name: "conv2_1/1/bn_scale"
  type: "Scale"
  bottom: "conv2_1/1"
  top: "conv2_1/1"
  param {
    lr_mult: 1
    decay_mult: 0
  }
  param {
    lr_mult: 1
    decay_mult: 0
  }
  scale_param {
    bias_term: true
  }
}
layer {
  name: "conv2_1/1/relu"
  type: "ReLU"
  bottom: "conv2_1/1"
  top: "conv2_1/1"
}
layer {
  name: "conv2_1/2/conv"
  type: "Convolution"
  bottom: "conv2_1/1"
  top: "conv2_1/2/conv"
  param {
    lr_mult: 1
    decay_mult: 1
  }
  convolution_param {
    num_output: 12
    bias_term: false
    weight_filler {
      type: "xavier"
    }
    pad_h: 1
    pad_w: 1
    kernel_h: 3
    kernel_w: 3
    stride_h: 1
    stride_w: 1
  }
}
layer {
  name: "conv2_1/2/bn"
  type: "BatchNorm"
  bottom: "conv2_1/2/conv"
  top: "conv2_1/2/conv"
}
layer {
  name: "conv2_1/2/neg"
  type: "Power"
  bottom: "conv2_1/2/conv"
  top: "conv2_1/2/neg"
  power_param {
    power: 1
    scale: -1
    shift: 0
  }
}
layer {
  name: "conv2_1/2/concat"
  type: "Concat"
  bottom: "conv2_1/2/conv"
  bottom: "conv2_1/2/neg"
  top: "conv2_1/2"
}
layer {
  name: "conv2_1/2/scale"
  type: "Scale"
  bottom: "conv2_1/2"
  top: "conv2_1/2"
  param {
    lr_mult: 1
    decay_mult: 0
  }
  param {
    lr_mult: 2
    decay_mult: 0
  }
  scale_param {
    bias_term: true
  }
}
layer {
  name: "conv2_1/2/relu"
  type: "ReLU"
  bottom: "conv2_1/2"
  top: "conv2_1/2"
}
layer {
  name: "conv2_1/3/conv"
  type: "Convolution"
  bottom: "conv2_1/2"
  top: "conv2_1/3"
  param {
    lr_mult: 1
    decay_mult: 1
  }
  convolution_param {
    num_output: 32
    bias_term: false
    weight_filler {
      type: "xavier"
    }
    pad_h: 0
    pad_w: 0
    kernel_h: 1
    kernel_w: 1
    stride_h: 1
    stride_w: 1
  }
}
layer {
  name: "conv2_1/3/bn"
  type: "BatchNorm"
  bottom: "conv2_1/3"
  top: "conv2_1/3"
}
layer {
  name: "conv2_1/3/bn_scale"
  type: "Scale"
  bottom: "conv2_1/3"
  top: "conv2_1/3"
  param {
    lr_mult: 1
    decay_mult: 0
  }
  param {
    lr_mult: 1
    decay_mult: 0
  }
  scale_param {
    bias_term: true
  }
}
layer {
  name: "conv2_1/proj"
  type: "Convolution"
  bottom: "pool1"
  top: "conv2_1/proj"
  param {
    lr_mult: 1
    decay_mult: 1
  }
  param {
    lr_mult: 2
    decay_mult: 0
  }
  convolution_param {
    num_output: 32
    weight_filler {
      type: "xavier"
    }
    bias_filler {
      type: "constant"
      value: 0.1
    }
    pad_h: 0
    pad_w: 0
    kernel_h: 1
    kernel_w: 1
    stride_h: 1
    stride_w: 1
  }
}
layer {
  name: "conv2_1/proj_bn"
  type: "BatchNorm"
  bottom: "conv2_1/proj"
  top: "conv2_1/proj"
}
layer {
  name: "conv2_1/proj_bn_scale"
  type: "Scale"
  bottom: "conv2_1/proj"
  top: "conv2_1/proj"
  param {
    lr_mult: 1
    decay_mult: 0
  }
  param {
    lr_mult: 1
    decay_mult: 0
  }
  scale_param {
    bias_term: true
  }
}
layer {
  name: "conv2_1"
  type: "Eltwise"
  bottom: "conv2_1/3"
  bottom: "conv2_1/proj"
  top: "conv2_1"
  eltwise_param {
    operation: SUM
    coeff: 1
    coeff: 1
  }
}
layer {
  name: "conv2_2/1/conv"
  type: "Convolution"
  bottom: "conv2_1"
  top: "conv2_2/1"
  param {
    lr_mult: 1
    decay_mult: 1
  }
  convolution_param {
    num_output: 12
    bias_term: false
    weight_filler {
      type: "xavier"
    }
    pad_h: 0
    pad_w: 0
    kernel_h: 1
    kernel_w: 1
    stride_h: 1
    stride_w: 1
  }
}
layer {
  name: "conv2_2/1/bn"
  type: "BatchNorm"
  bottom: "conv2_2/1"
  top: "conv2_2/1"
}
layer {
  name: "conv2_2/1/bn_scale"
  type: "Scale"
  bottom: "conv2_2/1"
  top: "conv2_2/1"
  param {
    lr_mult: 1
    decay_mult: 0
  }
  param {
    lr_mult: 1
    decay_mult: 0
  }
  scale_param {
    bias_term: true
  }
}
layer {
  name: "conv2_2/1/relu"
  type: "ReLU"
  bottom: "conv2_2/1"
  top: "conv2_2/1"
}
layer {
  name: "conv2_2/2/conv"
  type: "Convolution"
  bottom: "conv2_2/1"
  top: "conv2_2/2/conv"
  param {
    lr_mult: 1
    decay_mult: 1
  }
  convolution_param {
    num_output: 12
    bias_term: false
    weight_filler {
      type: "xavier"
    }
    pad_h: 1
    pad_w: 1
    kernel_h: 3
    kernel_w: 3
    stride_h: 1
    stride_w: 1
  }
}
layer {
  name: "conv2_2/2/bn"
  type: "BatchNorm"
  bottom: "conv2_2/2/conv"
  top: "conv2_2/2/conv"
}
layer {
  name: "conv2_2/2/neg"
  type: "Power"
  bottom: "conv2_2/2/conv"
  top: "conv2_2/2/neg"
  power_param {
    power: 1
    scale: -1
    shift: 0
  }
}
layer {
  name: "conv2_2/2/concat"
  type: "Concat"
  bottom: "conv2_2/2/conv"
  bottom: "conv2_2/2/neg"
  top: "conv2_2/2"
}
layer {
  name: "conv2_2/2/scale"
  type: "Scale"
  bottom: "conv2_2/2"
  top: "conv2_2/2"
  param {
    lr_mult: 1
    decay_mult: 0
  }
  param {
    lr_mult: 2
    decay_mult: 0
  }
  scale_param {
    bias_term: true
  }
}
layer {
  name: "conv2_2/2/relu"
  type: "ReLU"
  bottom: "conv2_2/2"
  top: "conv2_2/2"
}
layer {
  name: "conv2_2/3/conv"
  type: "Convolution"
  bottom: "conv2_2/2"
  top: "conv2_2/3"
  param {
    lr_mult: 1
    decay_mult: 1
  }
  convolution_param {
    num_output: 32
    bias_term: false
    weight_filler {
      type: "xavier"
    }
    pad_h: 0
    pad_w: 0
    kernel_h: 1
    kernel_w: 1
    stride_h: 1
    stride_w: 1
  }
}
layer {
  name: "conv2_2/3/bn"
  type: "BatchNorm"
  bottom: "conv2_2/3"
  top: "conv2_2/3"
}
layer {
  name: "conv2_2/3/bn_scale"
  type: "Scale"
  bottom: "conv2_2/3"
  top: "conv2_2/3"
  param {
    lr_mult: 1
    decay_mult: 0
  }
  param {
    lr_mult: 1
    decay_mult: 0
  }
  scale_param {
    bias_term: true
  }
}
layer {
  name: "conv2_2"
  type: "Eltwise"
  bottom: "conv2_2/3"
  bottom: "conv2_1"
  top: "conv2_2"
  eltwise_param {
    operation: SUM
    coeff: 1
    coeff: 1
  }
}
layer {
  name: "conv2_3/1/conv"
  type: "Convolution"
  bottom: "conv2_2"
  top: "conv2_3/1"
  param {
    lr_mult: 1
    decay_mult: 1
  }
  convolution_param {
    num_output: 12
    bias_term: false
    weight_filler {
      type: "xavier"
    }
    pad_h: 0
    pad_w: 0
    kernel_h: 1
    kernel_w: 1
    stride_h: 1
    stride_w: 1
  }
}
layer {
  name: "conv2_3/1/bn"
  type: "BatchNorm"
  bottom: "conv2_3/1"
  top: "conv2_3/1"
}
layer {
  name: "conv2_3/1/bn_scale"
  type: "Scale"
  bottom: "conv2_3/1"
  top: "conv2_3/1"
  param {
    lr_mult: 1
    decay_mult: 0
  }
  param {
    lr_mult: 1
    decay_mult: 0
  }
  scale_param {
    bias_term: true
  }
}
layer {
  name: "conv2_3/1/relu"
  type: "ReLU"
  bottom: "conv2_3/1"
  top: "conv2_3/1"
}
layer {
  name: "conv2_3/2/conv"
  type: "Convolution"
  bottom: "conv2_3/1"
  top: "conv2_3/2/conv"
  param {
    lr_mult: 1
    decay_mult: 1
  }
  convolution_param {
    num_output: 12
    bias_term: false
    weight_filler {
      type: "xavier"
    }
    pad_h: 1
    pad_w: 1
    kernel_h: 3
    kernel_w: 3
    stride_h: 1
    stride_w: 1
  }
}
layer {
  name: "conv2_3/2/bn"
  type: "BatchNorm"
  bottom: "conv2_3/2/conv"
  top: "conv2_3/2/conv"
}
layer {
  name: "conv2_3/2/neg"
  type: "Power"
  bottom: "conv2_3/2/conv"
  top: "conv2_3/2/neg"
  power_param {
    power: 1
    scale: -1
    shift: 0
  }
}
layer {
  name: "conv2_3/2/concat"
  type: "Concat"
  bottom: "conv2_3/2/conv"
  bottom: "conv2_3/2/neg"
  top: "conv2_3/2"
}
layer {
  name: "conv2_3/2/scale"
  type: "Scale"
  bottom: "conv2_3/2"
  top: "conv2_3/2"
  param {
    lr_mult: 1
    decay_mult: 0
  }
  param {
    lr_mult: 2
    decay_mult: 0
  }
  scale_param {
    bias_term: true
  }
}
layer {
  name: "conv2_3/2/relu"
  type: "ReLU"
  bottom: "conv2_3/2"
  top: "conv2_3/2"
}
layer {
  name: "conv2_3/3/conv"
  type: "Convolution"
  bottom: "conv2_3/2"
  top: "conv2_3/3"
  param {
    lr_mult: 1
    decay_mult: 1
  }
  convolution_param {
    num_output: 32
    bias_term: false
    weight_filler {
      type: "xavier"
    }
    pad_h: 0
    pad_w: 0
    kernel_h: 1
    kernel_w: 1
    stride_h: 1
    stride_w: 1
  }
}
layer {
  name: "conv2_3/3/bn"
  type: "BatchNorm"
  bottom: "conv2_3/3"
  top: "conv2_3/3"
}
layer {
  name: "conv2_3/3/bn_scale"
  type: "Scale"
  bottom: "conv2_3/3"
  top: "conv2_3/3"
  param {
    lr_mult: 1
    decay_mult: 0
  }
  param {
    lr_mult: 1
    decay_mult: 0
  }
  scale_param {
    bias_term: true
  }
}
layer {
  name: "conv2_3"
  type: "Eltwise"
  bottom: "conv2_3/3"
  bottom: "conv2_2"
  top: "conv2_3"
  eltwise_param {
    operation: SUM
    coeff: 1
    coeff: 1
  }
}
layer {
  name: "conv3_1/1/conv"
  type: "Convolution"
  bottom: "conv2_3"
  top: "conv3_1/1"
  param {
    lr_mult: 1
    decay_mult: 1
  }
  convolution_param {
    num_output: 24
    bias_term: false
    weight_filler {
      type: "xavier"
    }
    pad_h: 0
    pad_w: 0
    kernel_h: 1
    kernel_w: 1
    stride_h: 2
    stride_w: 2
  }
}
layer {
  name: "conv3_1/1/bn"
  type: "BatchNorm"
  bottom: "conv3_1/1"
  top: "conv3_1/1"
}
layer {
  name: "conv3_1/1/bn_scale"
  type: "Scale"
  bottom: "conv3_1/1"
  top: "conv3_1/1"
  param {
    lr_mult: 1
    decay_mult: 0
  }
  param {
    lr_mult: 1
    decay_mult: 0
  }
  scale_param {
    bias_term: true
  }
}
layer {
  name: "conv3_1/1/relu"
  type: "ReLU"
  bottom: "conv3_1/1"
  top: "conv3_1/1"
}
layer {
  name: "conv3_1/2/conv"
  type: "Convolution"
  bottom: "conv3_1/1"
  top: "conv3_1/2/conv"
  param {
    lr_mult: 1
    decay_mult: 1
  }
  convolution_param {
    num_output: 24
    bias_term: false
    weight_filler {
      type: "xavier"
    }
    pad_h: 1
    pad_w: 1
    kernel_h: 3
    kernel_w: 3
    stride_h: 1
    stride_w: 1
  }
}
layer {
  name: "conv3_1/2/bn"
  type: "BatchNorm"
  bottom: "conv3_1/2/conv"
  top: "conv3_1/2/conv"
}
layer {
  name: "conv3_1/2/neg"
  type: "Power"
  bottom: "conv3_1/2/conv"
  top: "conv3_1/2/neg"
  power_param {
    power: 1
    scale: -1
    shift: 0
  }
}
layer {
  name: "conv3_1/2/concat"
  type: "Concat"
  bottom: "conv3_1/2/conv"
  bottom: "conv3_1/2/neg"
  top: "conv3_1/2"
}
layer {
  name: "conv3_1/2/scale"
  type: "Scale"
  bottom: "conv3_1/2"
  top: "conv3_1/2"
  param {
    lr_mult: 1
    decay_mult: 0
  }
  param {
    lr_mult: 2
    decay_mult: 0
  }
  scale_param {
    bias_term: true
  }
}
layer {
  name: "conv3_1/2/relu"
  type: "ReLU"
  bottom: "conv3_1/2"
  top: "conv3_1/2"
}
layer {
  name: "conv3_1/3/conv"
  type: "Convolution"
  bottom: "conv3_1/2"
  top: "conv3_1/3"
  param {
    lr_mult: 1
    decay_mult: 1
  }
  convolution_param {
    num_output: 64
    bias_term: false
    weight_filler {
      type: "xavier"
    }
    pad_h: 0
    pad_w: 0
    kernel_h: 1
    kernel_w: 1
    stride_h: 1
    stride_w: 1
  }
}
layer {
  name: "conv3_1/3/bn"
  type: "BatchNorm"
  bottom: "conv3_1/3"
  top: "conv3_1/3"
}
layer {
  name: "conv3_1/3/bn_scale"
  type: "Scale"
  bottom: "conv3_1/3"
  top: "conv3_1/3"
  param {
    lr_mult: 1
    decay_mult: 0
  }
  param {
    lr_mult: 1
    decay_mult: 0
  }
  scale_param {
    bias_term: true
  }
}
layer {
  name: "conv3_1/proj"
  type: "Convolution"
  bottom: "conv2_3"
  top: "conv3_1/proj"
  param {
    lr_mult: 1
    decay_mult: 1
  }
  param {
    lr_mult: 2
    decay_mult: 0
  }
  convolution_param {
    num_output: 64
    weight_filler {
      type: "xavier"
    }
    bias_filler {
      type: "constant"
      value: 0.1
    }
    pad_h: 0
    pad_w: 0
    kernel_h: 1
    kernel_w: 1
    stride_h: 2
    stride_w: 2
  }
}
layer {
  name: "conv3_1/proj_bn"
  type: "BatchNorm"
  bottom: "conv3_1/proj"
  top: "conv3_1/proj"
}
layer {
  name: "conv3_1/proj_bn_scale"
  type: "Scale"
  bottom: "conv3_1/proj"
  top: "conv3_1/proj"
  param {
    lr_mult: 1
    decay_mult: 0
  }
  param {
    lr_mult: 1
    decay_mult: 0
  }
  scale_param {
    bias_term: true
  }
}
layer {
  name: "conv3_1"
  type: "Eltwise"
  bottom: "conv3_1/3"
  bottom: "conv3_1/proj"
  top: "conv3_1"
  eltwise_param {
    operation: SUM
    coeff: 1
    coeff: 1
  }
}
layer {
  name: "conv3_2/1/conv"
  type: "Convolution"
  bottom: "conv3_1"
  top: "conv3_2/1"
  param {
    lr_mult: 1
    decay_mult: 1
  }
  convolution_param {
    num_output: 24
    bias_term: false
    weight_filler {
      type: "xavier"
    }
    pad_h: 0
    pad_w: 0
    kernel_h: 1
    kernel_w: 1
    stride_h: 1
    stride_w: 1
  }
}
layer {
  name: "conv3_2/1/bn"
  type: "BatchNorm"
  bottom: "conv3_2/1"
  top: "conv3_2/1"
}
layer {
  name: "conv3_2/1/bn_scale"
  type: "Scale"
  bottom: "conv3_2/1"
  top: "conv3_2/1"
  param {
    lr_mult: 1
    decay_mult: 0
  }
  param {
    lr_mult: 1
    decay_mult: 0
  }
  scale_param {
    bias_term: true
  }
}
layer {
  name: "conv3_2/1/relu"
  type: "ReLU"
  bottom: "conv3_2/1"
  top: "conv3_2/1"
}
layer {
  name: "conv3_2/2/conv"
  type: "Convolution"
  bottom: "conv3_2/1"
  top: "conv3_2/2/conv"
  param {
    lr_mult: 1
    decay_mult: 1
  }
  convolution_param {
    num_output: 24
    bias_term: false
    weight_filler {
      type: "xavier"
    }
    pad_h: 1
    pad_w: 1
    kernel_h: 3
    kernel_w: 3
    stride_h: 1
    stride_w: 1
  }
}
layer {
  name: "conv3_2/2/bn"
  type: "BatchNorm"
  bottom: "conv3_2/2/conv"
  top: "conv3_2/2/conv"
}
layer {
  name: "conv3_2/2/neg"
  type: "Power"
  bottom: "conv3_2/2/conv"
  top: "conv3_2/2/neg"
  power_param {
    power: 1
    scale: -1
    shift: 0
  }
}
layer {
  name: "conv3_2/2/concat"
  type: "Concat"
  bottom: "conv3_2/2/conv"
  bottom: "conv3_2/2/neg"
  top: "conv3_2/2"
}
layer {
  name: "conv3_2/2/scale"
  type: "Scale"
  bottom: "conv3_2/2"
  top: "conv3_2/2"
  param {
    lr_mult: 1
    decay_mult: 0
  }
  param {
    lr_mult: 2
    decay_mult: 0
  }
  scale_param {
    bias_term: true
  }
}
layer {
  name: "conv3_2/2/relu"
  type: "ReLU"
  bottom: "conv3_2/2"
  top: "conv3_2/2"
}
layer {
  name: "conv3_2/3/conv"
  type: "Convolution"
  bottom: "conv3_2/2"
  top: "conv3_2/3"
  param {
    lr_mult: 1
    decay_mult: 1
  }
  convolution_param {
    num_output: 64
    bias_term: false
    weight_filler {
      type: "xavier"
    }
    pad_h: 0
    pad_w: 0
    kernel_h: 1
    kernel_w: 1
    stride_h: 1
    stride_w: 1
  }
}
layer {
  name: "conv3_2/3/bn"
  type: "BatchNorm"
  bottom: "conv3_2/3"
  top: "conv3_2/3"
}
layer {
  name: "conv3_2/3/bn_scale"
  type: "Scale"
  bottom: "conv3_2/3"
  top: "conv3_2/3"
  param {
    lr_mult: 1
    decay_mult: 0
  }
  param {
    lr_mult: 1
    decay_mult: 0
  }
  scale_param {
    bias_term: true
  }
}
layer {
  name: "conv3_2"
  type: "Eltwise"
  bottom: "conv3_2/3"
  bottom: "conv3_1"
  top: "conv3_2"
  eltwise_param {
    operation: SUM
    coeff: 1
    coeff: 1
  }
}
layer {
  name: "conv3_3/1/conv"
  type: "Convolution"
  bottom: "conv3_2"
  top: "conv3_3/1"
  param {
    lr_mult: 1
    decay_mult: 1
  }
  convolution_param {
    num_output: 24
    bias_term: false
    weight_filler {
      type: "xavier"
    }
    pad_h: 0
    pad_w: 0
    kernel_h: 1
    kernel_w: 1
    stride_h: 1
    stride_w: 1
  }
}
layer {
  name: "conv3_3/1/bn"
  type: "BatchNorm"
  bottom: "conv3_3/1"
  top: "conv3_3/1"
}
layer {
  name: "conv3_3/1/bn_scale"
  type: "Scale"
  bottom: "conv3_3/1"
  top: "conv3_3/1"
  param {
    lr_mult: 1
    decay_mult: 0
  }
  param {
    lr_mult: 1
    decay_mult: 0
  }
  scale_param {
    bias_term: true
  }
}
layer {
  name: "conv3_3/1/relu"
  type: "ReLU"
  bottom: "conv3_3/1"
  top: "conv3_3/1"
}
layer {
  name: "conv3_3/2/conv"
  type: "Convolution"
  bottom: "conv3_3/1"
  top: "conv3_3/2/conv"
  param {
    lr_mult: 1
    decay_mult: 1
  }
  convolution_param {
    num_output: 24
    bias_term: false
    weight_filler {
      type: "xavier"
    }
    pad_h: 1
    pad_w: 1
    kernel_h: 3
    kernel_w: 3
    stride_h: 1
    stride_w: 1
  }
}
layer {
  name: "conv3_3/2/bn"
  type: "BatchNorm"
  bottom: "conv3_3/2/conv"
  top: "conv3_3/2/conv"
}
layer {
  name: "conv3_3/2/neg"
  type: "Power"
  bottom: "conv3_3/2/conv"
  top: "conv3_3/2/neg"
  power_param {
    power: 1
    scale: -1
    shift: 0
  }
}
layer {
  name: "conv3_3/2/concat"
  type: "Concat"
  bottom: "conv3_3/2/conv"
  bottom: "conv3_3/2/neg"
  top: "conv3_3/2"
}
layer {
  name: "conv3_3/2/scale"
  type: "Scale"
  bottom: "conv3_3/2"
  top: "conv3_3/2"
  param {
    lr_mult: 1
    decay_mult: 0
  }
  param {
    lr_mult: 2
    decay_mult: 0
  }
  scale_param {
    bias_term: true
  }
}
layer {
  name: "conv3_3/2/relu"
  type: "ReLU"
  bottom: "conv3_3/2"
  top: "conv3_3/2"
}
layer {
  name: "conv3_3/3/conv"
  type: "Convolution"
  bottom: "conv3_3/2"
  top: "conv3_3/3"
  param {
    lr_mult: 1
    decay_mult: 1
  }
  convolution_param {
    num_output: 64
    bias_term: false
    weight_filler {
      type: "xavier"
    }
    pad_h: 0
    pad_w: 0
    kernel_h: 1
    kernel_w: 1
    stride_h: 1
    stride_w: 1
  }
}
layer {
  name: "conv3_3/3/bn"
  type: "BatchNorm"
  bottom: "conv3_3/3"
  top: "conv3_3/3"
}
layer {
  name: "conv3_3/3/bn_scale"
  type: "Scale"
  bottom: "conv3_3/3"
  top: "conv3_3/3"
  param {
    lr_mult: 1
    decay_mult: 0
  }
  param {
    lr_mult: 1
    decay_mult: 0
  }
  scale_param {
    bias_term: true
  }
}
layer {
  name: "conv3_3"
  type: "Eltwise"
  bottom: "conv3_3/3"
  bottom: "conv3_2"
  top: "conv3_3"
  eltwise_param {
    operation: SUM
    coeff: 1
    coeff: 1
  }
}
layer {
  name: "conv3_4/1/conv"
  type: "Convolution"
  bottom: "conv3_3"
  top: "conv3_4/1"
  param {
    lr_mult: 1
    decay_mult: 1
  }
  convolution_param {
    num_output: 24
    bias_term: false
    weight_filler {
      type: "xavier"
    }
    pad_h: 0
    pad_w: 0
    kernel_h: 1
    kernel_w: 1
    stride_h: 1
    stride_w: 1
  }
}
layer {
  name: "conv3_4/1/bn"
  type: "BatchNorm"
  bottom: "conv3_4/1"
  top: "conv3_4/1"
}
layer {
  name: "conv3_4/1/bn_scale"
  type: "Scale"
  bottom: "conv3_4/1"
  top: "conv3_4/1"
  param {
    lr_mult: 1
    decay_mult: 0
  }
  param {
    lr_mult: 1
    decay_mult: 0
  }
  scale_param {
    bias_term: true
  }
}
layer {
  name: "conv3_4/1/relu"
  type: "ReLU"
  bottom: "conv3_4/1"
  top: "conv3_4/1"
}
layer {
  name: "conv3_4/2/conv"
  type: "Convolution"
  bottom: "conv3_4/1"
  top: "conv3_4/2/conv"
  param {
    lr_mult: 1
    decay_mult: 1
  }
  convolution_param {
    num_output: 24
    bias_term: false
    weight_filler {
      type: "xavier"
    }
    pad_h: 1
    pad_w: 1
    kernel_h: 3
    kernel_w: 3
    stride_h: 1
    stride_w: 1
  }
}
layer {
  name: "conv3_4/2/bn"
  type: "BatchNorm"
  bottom: "conv3_4/2/conv"
  top: "conv3_4/2/conv"
}
layer {
  name: "conv3_4/2/neg"
  type: "Power"
  bottom: "conv3_4/2/conv"
  top: "conv3_4/2/neg"
  power_param {
    power: 1
    scale: -1
    shift: 0
  }
}
layer {
  name: "conv3_4/2/concat"
  type: "Concat"
  bottom: "conv3_4/2/conv"
  bottom: "conv3_4/2/neg"
  top: "conv3_4/2"
}
layer {
  name: "conv3_4/2/scale"
  type: "Scale"
  bottom: "conv3_4/2"
  top: "conv3_4/2"
  param {
    lr_mult: 1
    decay_mult: 0
  }
  param {
    lr_mult: 2
    decay_mult: 0
  }
  scale_param {
    bias_term: true
  }
}
layer {
  name: "conv3_4/2/relu"
  type: "ReLU"
  bottom: "conv3_4/2"
  top: "conv3_4/2"
}
layer {
  name: "conv3_4/3/conv"
  type: "Convolution"
  bottom: "conv3_4/2"
  top: "conv3_4/3"
  param {
    lr_mult: 1
    decay_mult: 1
  }
  convolution_param {
    num_output: 64
    bias_term: false
    weight_filler {
      type: "xavier"
    }
    pad_h: 0
    pad_w: 0
    kernel_h: 1
    kernel_w: 1
    stride_h: 1
    stride_w: 1
  }
}
layer {
  name: "conv3_4/3/bn"
  type: "BatchNorm"
  bottom: "conv3_4/3"
  top: "conv3_4/3"
}
layer {
  name: "conv3_4/3/bn_scale"
  type: "Scale"
  bottom: "conv3_4/3"
  top: "conv3_4/3"
  param {
    lr_mult: 1
    decay_mult: 0
  }
  param {
    lr_mult: 1
    decay_mult: 0
  }
  scale_param {
    bias_term: true
  }
}
layer {
  name: "conv3_4"
  type: "Eltwise"
  bottom: "conv3_4/3"
  bottom: "conv3_3"
  top: "conv3_4"
  eltwise_param {
    operation: SUM
    coeff: 1
    coeff: 1
  }
}
layer {
  name: "conv4_1/incep/0/conv"
  type: "Convolution"
  bottom: "conv3_4"
  top: "conv4_1/incep/0"
  param {
    lr_mult: 1
    decay_mult: 1
  }
  convolution_param {
    num_output: 32
    bias_term: false
    weight_filler {
      type: "xavier"
    }
    pad_h: 0
    pad_w: 0
    kernel_h: 1
    kernel_w: 1
    stride_h: 2
    stride_w: 2
  }
}
layer {
  name: "conv4_1/incep/0/bn"
  type: "BatchNorm"
  bottom: "conv4_1/incep/0"
  top: "conv4_1/incep/0"
}
layer {
  name: "conv4_1/incep/0/bn_scale"
  type: "Scale"
  bottom: "conv4_1/incep/0"
  top: "conv4_1/incep/0"
  param {
    lr_mult: 1
    decay_mult: 0
  }
  param {
    lr_mult: 1
    decay_mult: 0
  }
  scale_param {
    bias_term: true
  }
}
layer {
  name: "conv4_1/incep/0/relu"
  type: "ReLU"
  bottom: "conv4_1/incep/0"
  top: "conv4_1/incep/0"
}
layer {
  name: "conv4_1/incep/1_reduce/conv"
  type: "Convolution"
  bottom: "conv3_4"
  top: "conv4_1/incep/1_reduce"
  param {
    lr_mult: 1
    decay_mult: 1
  }
  convolution_param {
    num_output: 24
    bias_term: false
    weight_filler {
      type: "xavier"
    }
    pad_h: 0
    pad_w: 0
    kernel_h: 1
    kernel_w: 1
    stride_h: 2
    stride_w: 2
  }
}
layer {
  name: "conv4_1/incep/1_reduce/bn"
  type: "BatchNorm"
  bottom: "conv4_1/incep/1_reduce"
  top: "conv4_1/incep/1_reduce"
}
layer {
  name: "conv4_1/incep/1_reduce/bn_scale"
  type: "Scale"
  bottom: "conv4_1/incep/1_reduce"
  top: "conv4_1/incep/1_reduce"
  param {
    lr_mult: 1
    decay_mult: 0
  }
  param {
    lr_mult: 1
    decay_mult: 0
  }
  scale_param {
    bias_term: true
  }
}
layer {
  name: "conv4_1/incep/1_reduce/relu"
  type: "ReLU"
  bottom: "conv4_1/incep/1_reduce"
  top: "conv4_1/incep/1_reduce"
}
layer {
  name: "conv4_1/incep/1_0/conv"
  type: "Convolution"
  bottom: "conv4_1/incep/1_reduce"
  top: "conv4_1/incep/1_0"
  param {
    lr_mult: 1
    decay_mult: 1
  }
  convolution_param {
    num_output: 64
    bias_term: false
    weight_filler {
      type: "xavier"
    }
    pad_h: 1
    pad_w: 1
    kernel_h: 3
    kernel_w: 3
    stride_h: 1
    stride_w: 1
  }
}
layer {
  name: "conv4_1/incep/1_0/bn"
  type: "BatchNorm"
  bottom: "conv4_1/incep/1_0"
  top: "conv4_1/incep/1_0"
}
layer {
  name: "conv4_1/incep/1_0/bn_scale"
  type: "Scale"
  bottom: "conv4_1/incep/1_0"
  top: "conv4_1/incep/1_0"
  param {
    lr_mult: 1
    decay_mult: 0
  }
  param {
    lr_mult: 1
    decay_mult: 0
  }
  scale_param {
    bias_term: true
  }
}
layer {
  name: "conv4_1/incep/1_0/relu"
  type: "ReLU"
  bottom: "conv4_1/incep/1_0"
  top: "conv4_1/incep/1_0"
}
layer {
  name: "conv4_1/incep/2_reduce/conv"
  type: "Convolution"
  bottom: "conv3_4"
  top: "conv4_1/incep/2_reduce"
  param {
    lr_mult: 1
    decay_mult: 1
  }
  convolution_param {
    num_output: 12
    bias_term: false
    weight_filler {
      type: "xavier"
    }
    pad_h: 0
    pad_w: 0
    kernel_h: 1
    kernel_w: 1
    stride_h: 2
    stride_w: 2
  }
}
layer {
  name: "conv4_1/incep/2_reduce/bn"
  type: "BatchNorm"
  bottom: "conv4_1/incep/2_reduce"
  top: "conv4_1/incep/2_reduce"
}
layer {
  name: "conv4_1/incep/2_reduce/bn_scale"
  type: "Scale"
  bottom: "conv4_1/incep/2_reduce"
  top: "conv4_1/incep/2_reduce"
  param {
    lr_mult: 1
    decay_mult: 0
  }
  param {
    lr_mult: 1
    decay_mult: 0
  }
  scale_param {
    bias_term: true
  }
}
layer {
  name: "conv4_1/incep/2_reduce/relu"
  type: "ReLU"
  bottom: "conv4_1/incep/2_reduce"
  top: "conv4_1/incep/2_reduce"
}
layer {
  name: "conv4_1/incep/2_0/conv"
  type: "Convolution"
  bottom: "conv4_1/incep/2_reduce"
  top: "conv4_1/incep/2_0"
  param {
    lr_mult: 1
    decay_mult: 1
  }
  convolution_param {
    num_output: 24
    bias_term: false
    weight_filler {
      type: "xavier"
    }
    pad_h: 1
    pad_w: 1
    kernel_h: 3
    kernel_w: 3
    stride_h: 1
    stride_w: 1
  }
}
layer {
  name: "conv4_1/incep/2_0/bn"
  type: "BatchNorm"
  bottom: "conv4_1/incep/2_0"
  top: "conv4_1/incep/2_0"
}
layer {
  name: "conv4_1/incep/2_0/bn_scale"
  type: "Scale"
  bottom: "conv4_1/incep/2_0"
  top: "conv4_1/incep/2_0"
  param {
    lr_mult: 1
    decay_mult: 0
  }
  param {
    lr_mult: 1
    decay_mult: 0
  }
  scale_param {
    bias_term: true
  }
}
layer {
  name: "conv4_1/incep/2_0/relu"
  type: "ReLU"
  bottom: "conv4_1/incep/2_0"
  top: "conv4_1/incep/2_0"
}
layer {
  name: "conv4_1/incep/2_1/conv"
  type: "Convolution"
  bottom: "conv4_1/incep/2_0"
  top: "conv4_1/incep/2_1"
  param {
    lr_mult: 1
    decay_mult: 1
  }
  convolution_param {
    num_output: 24
    bias_term: false
    weight_filler {
      type: "xavier"
    }
    pad_h: 1
    pad_w: 1
    kernel_h: 3
    kernel_w: 3
    stride_h: 1
    stride_w: 1
  }
}
layer {
  name: "conv4_1/incep/2_1/bn"
  type: "BatchNorm"
  bottom: "conv4_1/incep/2_1"
  top: "conv4_1/incep/2_1"
}
layer {
  name: "conv4_1/incep/2_1/bn_scale"
  type: "Scale"
  bottom: "conv4_1/incep/2_1"
  top: "conv4_1/incep/2_1"
  param {
    lr_mult: 1
    decay_mult: 0
  }
  param {
    lr_mult: 1
    decay_mult: 0
  }
  scale_param {
    bias_term: true
  }
}
layer {
  name: "conv4_1/incep/2_1/relu"
  type: "ReLU"
  bottom: "conv4_1/incep/2_1"
  top: "conv4_1/incep/2_1"
}
layer {
  name: "conv4_1/incep/pool"
  type: "Pooling"
  bottom: "conv3_4"
  top: "conv4_1/incep/pool"
  pooling_param {
    pool: MAX
    kernel_size: 3
    stride: 2
    pad: 0
  }
}
layer {
  name: "conv4_1/incep/poolproj/conv"
  type: "Convolution"
  bottom: "conv4_1/incep/pool"
  top: "conv4_1/incep/poolproj"
  param {
    lr_mult: 1
    decay_mult: 1
  }
  convolution_param {
    num_output: 64
    bias_term: false
    weight_filler {
      type: "xavier"
    }
    pad_h: 0
    pad_w: 0
    kernel_h: 1
    kernel_w: 1
    stride_h: 1
    stride_w: 1
  }
}
layer {
  name: "conv4_1/incep/poolproj/bn"
  type: "BatchNorm"
  bottom: "conv4_1/incep/poolproj"
  top: "conv4_1/incep/poolproj"
}
layer {
  name: "conv4_1/incep/poolproj/bn_scale"
  type: "Scale"
  bottom: "conv4_1/incep/poolproj"
  top: "conv4_1/incep/poolproj"
  param {
    lr_mult: 1
    decay_mult: 0
  }
  param {
    lr_mult: 1
    decay_mult: 0
  }
  scale_param {
    bias_term: true
  }
}
layer {
  name: "conv4_1/incep/poolproj/relu"
  type: "ReLU"
  bottom: "conv4_1/incep/poolproj"
  top: "conv4_1/incep/poolproj"
}
layer {
  name: "conv4_1/incep"
  type: "Concat"
  bottom: "conv4_1/incep/0"
  bottom: "conv4_1/incep/1_0"
  bottom: "conv4_1/incep/2_1"
  bottom: "conv4_1/incep/poolproj"
  top: "conv4_1/incep"
}
layer {
  name: "conv4_1/out/conv"
  type: "Convolution"
  bottom: "conv4_1/incep"
  top: "conv4_1/out"
  param {
    lr_mult: 1
    decay_mult: 1
  }
  convolution_param {
    num_output: 128
    bias_term: false
    weight_filler {
      type: "xavier"
    }
    pad_h: 0
    pad_w: 0
    kernel_h: 1
    kernel_w: 1
    stride_h: 1
    stride_w: 1
  }
}
layer {
  name: "conv4_1/out/bn"
  type: "BatchNorm"
  bottom: "conv4_1/out"
  top: "conv4_1/out"
}
layer {
  name: "conv4_1/out/bn_scale"
  type: "Scale"
  bottom: "conv4_1/out"
  top: "conv4_1/out"
  param {
    lr_mult: 1
    decay_mult: 0
  }
  param {
    lr_mult: 1
    decay_mult: 0
  }
  scale_param {
    bias_term: true
  }
}
layer {
  name: "conv4_1/proj"
  type: "Convolution"
  bottom: "conv3_4"
  top: "conv4_1/proj"
  param {
    lr_mult: 1
    decay_mult: 1
  }
  param {
    lr_mult: 2
    decay_mult: 0
  }
  convolution_param {
    num_output: 128
    weight_filler {
      type: "xavier"
    }
    bias_filler {
      type: "constant"
      value: 0.1
    }
    pad_h: 0
    pad_w: 0
    kernel_h: 1
    kernel_w: 1
    stride_h: 2
    stride_w: 2
  }
}
layer {
  name: "conv4_1/proj_bn"
  type: "BatchNorm"
  bottom: "conv4_1/proj"
  top: "conv4_1/proj"
}
layer {
  name: "conv4_1/proj_bn_scale"
  type: "Scale"
  bottom: "conv4_1/proj"
  top: "conv4_1/proj"
  param {
    lr_mult: 1
    decay_mult: 0
  }
  param {
    lr_mult: 1
    decay_mult: 0
  }
  scale_param {
    bias_term: true
  }
}
layer {
  name: "conv4_1"
  type: "Eltwise"
  bottom: "conv4_1/out"
  bottom: "conv4_1/proj"
  top: "conv4_1"
  eltwise_param {
    operation: SUM
    coeff: 1
    coeff: 1
  }
}
layer {
  name: "conv4_2/incep/0/conv"
  type: "Convolution"
  bottom: "conv4_1"
  top: "conv4_2/incep/0"
  param {
    lr_mult: 1
    decay_mult: 1
  }
 
I0523 17:56:45.400373 30991 layer_factory.hpp:77] Creating layer data
I0523 17:56:45.419139 30991 net.cpp:84] Creating Layer data
I0523 17:56:45.419173 30991 net.cpp:380] data -> data
I0523 17:56:45.419183 30991 net.cpp:380] data -> label
I0523 17:56:45.421608 30991 net.cpp:122] Setting up data
I0523 17:56:45.421634 30991 net.cpp:129] Top shape: 64 3 64 64 (786432)
I0523 17:56:45.421639 30991 net.cpp:129] Top shape: 64 6 (384)
I0523 17:56:45.421643 30991 net.cpp:137] Memory required for data: 3147264
I0523 17:56:45.421648 30991 layer_factory.hpp:77] Creating layer conv1_1/conv
I0523 17:56:45.421661 30991 net.cpp:84] Creating Layer conv1_1/conv
I0523 17:56:45.421665 30991 net.cpp:406] conv1_1/conv <- data
I0523 17:56:45.421670 30991 net.cpp:380] conv1_1/conv -> conv1_1/conv
I0523 17:56:45.612015 30991 net.cpp:122] Setting up conv1_1/conv
I0523 17:56:45.612045 30991 net.cpp:129] Top shape: 64 8 32 32 (524288)
I0523 17:56:45.612048 30991 net.cpp:137] Memory required for data: 5244416
I0523 17:56:45.612059 30991 layer_factory.hpp:77] Creating layer conv1_1/bn
I0523 17:56:45.612069 30991 net.cpp:84] Creating Layer conv1_1/bn
I0523 17:56:45.612073 30991 net.cpp:406] conv1_1/bn <- conv1_1/conv
I0523 17:56:45.612078 30991 net.cpp:367] conv1_1/bn -> conv1_1/conv (in-place)
I0523 17:56:45.612831 30991 net.cpp:122] Setting up conv1_1/bn
I0523 17:56:45.612845 30991 net.cpp:129] Top shape: 64 8 32 32 (524288)
I0523 17:56:45.612849 30991 net.cpp:137] Memory required for data: 7341568
I0523 17:56:45.612859 30991 layer_factory.hpp:77] Creating layer conv1_1/conv_conv1_1/bn_0_split
I0523 17:56:45.612865 30991 net.cpp:84] Creating Layer conv1_1/conv_conv1_1/bn_0_split
I0523 17:56:45.612869 30991 net.cpp:406] conv1_1/conv_conv1_1/bn_0_split <- conv1_1/conv
I0523 17:56:45.612874 30991 net.cpp:380] conv1_1/conv_conv1_1/bn_0_split -> conv1_1/conv_conv1_1/bn_0_split_0
I0523 17:56:45.612879 30991 net.cpp:380] conv1_1/conv_conv1_1/bn_0_split -> conv1_1/conv_conv1_1/bn_0_split_1
I0523 17:56:45.612913 30991 net.cpp:122] Setting up conv1_1/conv_conv1_1/bn_0_split
I0523 17:56:45.612920 30991 net.cpp:129] Top shape: 64 8 32 32 (524288)
I0523 17:56:45.612923 30991 net.cpp:129] Top shape: 64 8 32 32 (524288)
I0523 17:56:45.612926 30991 net.cpp:137] Memory required for data: 11535872
I0523 17:56:45.612928 30991 layer_factory.hpp:77] Creating layer conv1_1/neg
I0523 17:56:45.612934 30991 net.cpp:84] Creating Layer conv1_1/neg
I0523 17:56:45.612937 30991 net.cpp:406] conv1_1/neg <- conv1_1/conv_conv1_1/bn_0_split_0
I0523 17:56:45.612942 30991 net.cpp:380] conv1_1/neg -> conv1_1/neg
I0523 17:56:45.612958 30991 net.cpp:122] Setting up conv1_1/neg
I0523 17:56:45.612963 30991 net.cpp:129] Top shape: 64 8 32 32 (524288)
I0523 17:56:45.612965 30991 net.cpp:137] Memory required for data: 13633024
I0523 17:56:45.612968 30991 layer_factory.hpp:77] Creating layer conv1_1/concat
I0523 17:56:45.612973 30991 net.cpp:84] Creating Layer conv1_1/concat
I0523 17:56:45.612977 30991 net.cpp:406] conv1_1/concat <- conv1_1/conv_conv1_1/bn_0_split_1
I0523 17:56:45.612980 30991 net.cpp:406] conv1_1/concat <- conv1_1/neg
I0523 17:56:45.612984 30991 net.cpp:380] conv1_1/concat -> conv1_1
I0523 17:56:45.613000 30991 net.cpp:122] Setting up conv1_1/concat
I0523 17:56:45.613005 30991 net.cpp:129] Top shape: 64 16 32 32 (1048576)
I0523 17:56:45.613008 30991 net.cpp:137] Memory required for data: 17827328
I0523 17:56:45.613011 30991 layer_factory.hpp:77] Creating layer conv1_1/scale
I0523 17:56:45.613016 30991 net.cpp:84] Creating Layer conv1_1/scale
I0523 17:56:45.613019 30991 net.cpp:406] conv1_1/scale <- conv1_1
I0523 17:56:45.613023 30991 net.cpp:367] conv1_1/scale -> conv1_1 (in-place)
I0523 17:56:45.613054 30991 layer_factory.hpp:77] Creating layer conv1_1/scale
I0523 17:56:45.613127 30991 net.cpp:122] Setting up conv1_1/scale
I0523 17:56:45.613134 30991 net.cpp:129] Top shape: 64 16 32 32 (1048576)
I0523 17:56:45.613137 30991 net.cpp:137] Memory required for data: 22021632
I0523 17:56:45.613143 30991 layer_factory.hpp:77] Creating layer conv1_1/relu
I0523 17:56:45.613147 30991 net.cpp:84] Creating Layer conv1_1/relu
I0523 17:56:45.613150 30991 net.cpp:406] conv1_1/relu <- conv1_1
I0523 17:56:45.613154 30991 net.cpp:367] conv1_1/relu -> conv1_1 (in-place)
I0523 17:56:45.613287 30991 net.cpp:122] Setting up conv1_1/relu
I0523 17:56:45.613294 30991 net.cpp:129] Top shape: 64 16 32 32 (1048576)
I0523 17:56:45.613298 30991 net.cpp:137] Memory required for data: 26215936
I0523 17:56:45.613301 30991 layer_factory.hpp:77] Creating layer pool1
I0523 17:56:45.613307 30991 net.cpp:84] Creating Layer pool1
I0523 17:56:45.613310 30991 net.cpp:406] pool1 <- conv1_1
I0523 17:56:45.613315 30991 net.cpp:380] pool1 -> pool1
I0523 17:56:45.613353 30991 net.cpp:122] Setting up pool1
I0523 17:56:45.613358 30991 net.cpp:129] Top shape: 64 16 16 16 (262144)
I0523 17:56:45.613360 30991 net.cpp:137] Memory required for data: 27264512
I0523 17:56:45.613363 30991 layer_factory.hpp:77] Creating layer pool1_pool1_0_split
I0523 17:56:45.613368 30991 net.cpp:84] Creating Layer pool1_pool1_0_split
I0523 17:56:45.613370 30991 net.cpp:406] pool1_pool1_0_split <- pool1
I0523 17:56:45.613374 30991 net.cpp:380] pool1_pool1_0_split -> pool1_pool1_0_split_0
I0523 17:56:45.613380 30991 net.cpp:380] pool1_pool1_0_split -> pool1_pool1_0_split_1
I0523 17:56:45.613404 30991 net.cpp:122] Setting up pool1_pool1_0_split
I0523 17:56:45.613409 30991 net.cpp:129] Top shape: 64 16 16 16 (262144)
I0523 17:56:45.613412 30991 net.cpp:129] Top shape: 64 16 16 16 (262144)
I0523 17:56:45.613415 30991 net.cpp:137] Memory required for data: 29361664
I0523 17:56:45.613417 30991 layer_factory.hpp:77] Creating layer conv2_1/1/conv
I0523 17:56:45.613425 30991 net.cpp:84] Creating Layer conv2_1/1/conv
I0523 17:56:45.613428 30991 net.cpp:406] conv2_1/1/conv <- pool1_pool1_0_split_0
I0523 17:56:45.613433 30991 net.cpp:380] conv2_1/1/conv -> conv2_1/1
I0523 17:56:45.614476 30991 net.cpp:122] Setting up conv2_1/1/conv
I0523 17:56:45.614488 30991 net.cpp:129] Top shape: 64 12 16 16 (196608)
I0523 17:56:45.614495 30991 net.cpp:137] Memory required for data: 30148096
I0523 17:56:45.614500 30991 layer_factory.hpp:77] Creating layer conv2_1/1/bn
I0523 17:56:45.614506 30991 net.cpp:84] Creating Layer conv2_1/1/bn
I0523 17:56:45.614509 30991 net.cpp:406] conv2_1/1/bn <- conv2_1/1
I0523 17:56:45.614513 30991 net.cpp:367] conv2_1/1/bn -> conv2_1/1 (in-place)
I0523 17:56:45.614644 30991 net.cpp:122] Setting up conv2_1/1/bn
I0523 17:56:45.614650 30991 net.cpp:129] Top shape: 64 12 16 16 (196608)
I0523 17:56:45.614655 30991 net.cpp:137] Memory required for data: 30934528
I0523 17:56:45.614661 30991 layer_factory.hpp:77] Creating layer conv2_1/1/bn_scale
I0523 17:56:45.614667 30991 net.cpp:84] Creating Layer conv2_1/1/bn_scale
I0523 17:56:45.614670 30991 net.cpp:406] conv2_1/1/bn_scale <- conv2_1/1
I0523 17:56:45.614675 30991 net.cpp:367] conv2_1/1/bn_scale -> conv2_1/1 (in-place)
I0523 17:56:45.614701 30991 layer_factory.hpp:77] Creating layer conv2_1/1/bn_scale
I0523 17:56:45.614774 30991 net.cpp:122] Setting up conv2_1/1/bn_scale
I0523 17:56:45.614781 30991 net.cpp:129] Top shape: 64 12 16 16 (196608)
I0523 17:56:45.614784 30991 net.cpp:137] Memory required for data: 31720960
I0523 17:56:45.614789 30991 layer_factory.hpp:77] Creating layer conv2_1/1/relu
I0523 17:56:45.614794 30991 net.cpp:84] Creating Layer conv2_1/1/relu
I0523 17:56:45.614797 30991 net.cpp:406] conv2_1/1/relu <- conv2_1/1
I0523 17:56:45.614800 30991 net.cpp:367] conv2_1/1/relu -> conv2_1/1 (in-place)
I0523 17:56:45.614923 30991 net.cpp:122] Setting up conv2_1/1/relu
I0523 17:56:45.614931 30991 net.cpp:129] Top shape: 64 12 16 16 (196608)
I0523 17:56:45.614934 30991 net.cpp:137] Memory required for data: 32507392
I0523 17:56:45.614938 30991 layer_factory.hpp:77] Creating layer conv2_1/2/conv
I0523 17:56:45.614943 30991 net.cpp:84] Creating Layer conv2_1/2/conv
I0523 17:56:45.614946 30991 net.cpp:406] conv2_1/2/conv <- conv2_1/1
I0523 17:56:45.614951 30991 net.cpp:380] conv2_1/2/conv -> conv2_1/2/conv
I0523 17:56:45.615959 30991 net.cpp:122] Setting up conv2_1/2/conv
I0523 17:56:45.615972 30991 net.cpp:129] Top shape: 64 12 16 16 (196608)
I0523 17:56:45.615974 30991 net.cpp:137] Memory required for data: 33293824
I0523 17:56:45.615980 30991 layer_factory.hpp:77] Creating layer conv2_1/2/bn
I0523 17:56:45.615986 30991 net.cpp:84] Creating Layer conv2_1/2/bn
I0523 17:56:45.615990 30991 net.cpp:406] conv2_1/2/bn <- conv2_1/2/conv
I0523 17:56:45.615994 30991 net.cpp:367] conv2_1/2/bn -> conv2_1/2/conv (in-place)
I0523 17:56:45.616130 30991 net.cpp:122] Setting up conv2_1/2/bn
I0523 17:56:45.616138 30991 net.cpp:129] Top shape: 64 12 16 16 (196608)
I0523 17:56:45.616142 30991 net.cpp:137] Memory required for data: 34080256
I0523 17:56:45.616147 30991 layer_factory.hpp:77] Creating layer conv2_1/2/conv_conv2_1/2/bn_0_split
I0523 17:56:45.616153 30991 net.cpp:84] Creating Layer conv2_1/2/conv_conv2_1/2/bn_0_split
I0523 17:56:45.616156 30991 net.cpp:406] conv2_1/2/conv_conv2_1/2/bn_0_split <- conv2_1/2/conv
I0523 17:56:45.616161 30991 net.cpp:380] conv2_1/2/conv_conv2_1/2/bn_0_split -> conv2_1/2/conv_conv2_1/2/bn_0_split_0
I0523 17:56:45.616166 30991 net.cpp:380] conv2_1/2/conv_conv2_1/2/bn_0_split -> conv2_1/2/conv_conv2_1/2/bn_0_split_1
I0523 17:56:45.616190 30991 net.cpp:122] Setting up conv2_1/2/conv_conv2_1/2/bn_0_split
I0523 17:56:45.616195 30991 net.cpp:129] Top shape: 64 12 16 16 (196608)
I0523 17:56:45.616199 30991 net.cpp:129] Top shape: 64 12 16 16 (196608)
I0523 17:56:45.616202 30991 net.cpp:137] Memory required for data: 35653120
I0523 17:56:45.616205 30991 layer_factory.hpp:77] Creating layer conv2_1/2/neg
I0523 17:56:45.616209 30991 net.cpp:84] Creating Layer conv2_1/2/neg
I0523 17:56:45.616214 30991 net.cpp:406] conv2_1/2/neg <- conv2_1/2/conv_conv2_1/2/bn_0_split_0
I0523 17:56:45.616217 30991 net.cpp:380] conv2_1/2/neg -> conv2_1/2/neg
I0523 17:56:45.616232 30991 net.cpp:122] Setting up conv2_1/2/neg
I0523 17:56:45.616237 30991 net.cpp:129] Top shape: 64 12 16 16 (196608)
I0523 17:56:45.616240 30991 net.cpp:137] Memory required for data: 36439552
I0523 17:56:45.616246 30991 layer_factory.hpp:77] Creating layer conv2_1/2/concat
I0523 17:56:45.616250 30991 net.cpp:84] Creating Layer conv2_1/2/concat
I0523 17:56:45.616253 30991 net.cpp:406] conv2_1/2/concat <- conv2_1/2/conv_conv2_1/2/bn_0_split_1
I0523 17:56:45.616258 30991 net.cpp:406] conv2_1/2/concat <- conv2_1/2/neg
I0523 17:56:45.616262 30991 net.cpp:380] conv2_1/2/concat -> conv2_1/2
I0523 17:56:45.616277 30991 net.cpp:122] Setting up conv2_1/2/concat
I0523 17:56:45.616283 30991 net.cpp:129] Top shape: 64 24 16 16 (393216)
I0523 17:56:45.616286 30991 net.cpp:137] Memory required for data: 38012416
I0523 17:56:45.616289 30991 layer_factory.hpp:77] Creating layer conv2_1/2/scale
I0523 17:56:45.616294 30991 net.cpp:84] Creating Layer conv2_1/2/scale
I0523 17:56:45.616297 30991 net.cpp:406] conv2_1/2/scale <- conv2_1/2
I0523 17:56:45.616302 30991 net.cpp:367] conv2_1/2/scale -> conv2_1/2 (in-place)
I0523 17:56:45.616338 30991 layer_factory.hpp:77] Creating layer conv2_1/2/scale
I0523 17:56:45.616413 30991 net.cpp:122] Setting up conv2_1/2/scale
I0523 17:56:45.616420 30991 net.cpp:129] Top shape: 64 24 16 16 (393216)
I0523 17:56:45.616423 30991 net.cpp:137] Memory required for data: 39585280
I0523 17:56:45.616430 30991 layer_factory.hpp:77] Creating layer conv2_1/2/relu
I0523 17:56:45.616435 30991 net.cpp:84] Creating Layer conv2_1/2/relu
I0523 17:56:45.616437 30991 net.cpp:406] conv2_1/2/relu <- conv2_1/2
I0523 17:56:45.616441 30991 net.cpp:367] conv2_1/2/relu -> conv2_1/2 (in-place)
I0523 17:56:45.616828 30991 net.cpp:122] Setting up conv2_1/2/relu
I0523 17:56:45.616839 30991 net.cpp:129] Top shape: 64 24 16 16 (393216)
I0523 17:56:45.616842 30991 net.cpp:137] Memory required for data: 41158144
I0523 17:56:45.616847 30991 layer_factory.hpp:77] Creating layer conv2_1/3/conv
I0523 17:56:45.616852 30991 net.cpp:84] Creating Layer conv2_1/3/conv
I0523 17:56:45.616856 30991 net.cpp:406] conv2_1/3/conv <- conv2_1/2
I0523 17:56:45.616860 30991 net.cpp:380] conv2_1/3/conv -> conv2_1/3
I0523 17:56:45.617625 30991 net.cpp:122] Setting up conv2_1/3/conv
I0523 17:56:45.617636 30991 net.cpp:129] Top shape: 64 32 16 16 (524288)
I0523 17:56:45.617640 30991 net.cpp:137] Memory required for data: 43255296
I0523 17:56:45.617645 30991 layer_factory.hpp:77] Creating layer conv2_1/3/bn
I0523 17:56:45.617650 30991 net.cpp:84] Creating Layer conv2_1/3/bn
I0523 17:56:45.617653 30991 net.cpp:406] conv2_1/3/bn <- conv2_1/3
I0523 17:56:45.617657 30991 net.cpp:367] conv2_1/3/bn -> conv2_1/3 (in-place)
I0523 17:56:45.617790 30991 net.cpp:122] Setting up conv2_1/3/bn
I0523 17:56:45.617797 30991 net.cpp:129] Top shape: 64 32 16 16 (524288)
I0523 17:56:45.617800 30991 net.cpp:137] Memory required for data: 45352448
I0523 17:56:45.617805 30991 layer_factory.hpp:77] Creating layer conv2_1/3/bn_scale
I0523 17:56:45.617810 30991 net.cpp:84] Creating Layer conv2_1/3/bn_scale
I0523 17:56:45.617813 30991 net.cpp:406] conv2_1/3/bn_scale <- conv2_1/3
I0523 17:56:45.617817 30991 net.cpp:367] conv2_1/3/bn_scale -> conv2_1/3 (in-place)
I0523 17:56:45.617844 30991 layer_factory.hpp:77] Creating layer conv2_1/3/bn_scale
I0523 17:56:45.617919 30991 net.cpp:122] Setting up conv2_1/3/bn_scale
I0523 17:56:45.617925 30991 net.cpp:129] Top shape: 64 32 16 16 (524288)
I0523 17:56:45.617928 30991 net.cpp:137] Memory required for data: 47449600
I0523 17:56:45.617933 30991 layer_factory.hpp:77] Creating layer conv2_1/proj
I0523 17:56:45.617939 30991 net.cpp:84] Creating Layer conv2_1/proj
I0523 17:56:45.617943 30991 net.cpp:406] conv2_1/proj <- pool1_pool1_0_split_1
I0523 17:56:45.617947 30991 net.cpp:380] conv2_1/proj -> conv2_1/proj
I0523 17:56:45.618460 30991 net.cpp:122] Setting up conv2_1/proj
I0523 17:56:45.618470 30991 net.cpp:129] Top shape: 64 32 16 16 (524288)
I0523 17:56:45.618474 30991 net.cpp:137] Memory required for data: 49546752
I0523 17:56:45.618479 30991 layer_factory.hpp:77] Creating layer conv2_1/proj_bn
I0523 17:56:45.618484 30991 net.cpp:84] Creating Layer conv2_1/proj_bn
I0523 17:56:45.618486 30991 net.cpp:406] conv2_1/proj_bn <- conv2_1/proj
I0523 17:56:45.618494 30991 net.cpp:367] conv2_1/proj_bn -> conv2_1/proj (in-place)
I0523 17:56:45.618623 30991 net.cpp:122] Setting up conv2_1/proj_bn
I0523 17:56:45.618629 30991 net.cpp:129] Top shape: 64 32 16 16 (524288)
I0523 17:56:45.618633 30991 net.cpp:137] Memory required for data: 51643904
I0523 17:56:45.618641 30991 layer_factory.hpp:77] Creating layer conv2_1/proj_bn_scale
I0523 17:56:45.618646 30991 net.cpp:84] Creating Layer conv2_1/proj_bn_scale
I0523 17:56:45.618649 30991 net.cpp:406] conv2_1/proj_bn_scale <- conv2_1/proj
I0523 17:56:45.618654 30991 net.cpp:367] conv2_1/proj_bn_scale -> conv2_1/proj (in-place)
I0523 17:56:45.618681 30991 layer_factory.hpp:77] Creating layer conv2_1/proj_bn_scale
I0523 17:56:45.618755 30991 net.cpp:122] Setting up conv2_1/proj_bn_scale
I0523 17:56:45.618762 30991 net.cpp:129] Top shape: 64 32 16 16 (524288)
I0523 17:56:45.618764 30991 net.cpp:137] Memory required for data: 53741056
I0523 17:56:45.618769 30991 layer_factory.hpp:77] Creating layer conv2_1
I0523 17:56:45.618774 30991 net.cpp:84] Creating Layer conv2_1
I0523 17:56:45.618777 30991 net.cpp:406] conv2_1 <- conv2_1/3
I0523 17:56:45.618782 30991 net.cpp:406] conv2_1 <- conv2_1/proj
I0523 17:56:45.618785 30991 net.cpp:380] conv2_1 -> conv2_1
I0523 17:56:45.618799 30991 net.cpp:122] Setting up conv2_1
I0523 17:56:45.618804 30991 net.cpp:129] Top shape: 64 32 16 16 (524288)
I0523 17:56:45.618808 30991 net.cpp:137] Memory required for data: 55838208
I0523 17:56:45.618810 30991 layer_factory.hpp:77] Creating layer conv2_1_conv2_1_0_split
I0523 17:56:45.618814 30991 net.cpp:84] Creating Layer conv2_1_conv2_1_0_split
I0523 17:56:45.618818 30991 net.cpp:406] conv2_1_conv2_1_0_split <- conv2_1
I0523 17:56:45.618823 30991 net.cpp:380] conv2_1_conv2_1_0_split -> conv2_1_conv2_1_0_split_0
I0523 17:56:45.618829 30991 net.cpp:380] conv2_1_conv2_1_0_split -> conv2_1_conv2_1_0_split_1
I0523 17:56:45.618852 30991 net.cpp:122] Setting up conv2_1_conv2_1_0_split
I0523 17:56:45.618857 30991 net.cpp:129] Top shape: 64 32 16 16 (524288)
I0523 17:56:45.618861 30991 net.cpp:129] Top shape: 64 32 16 16 (524288)
I0523 17:56:45.618865 30991 net.cpp:137] Memory required for data: 60032512
I0523 17:56:45.618867 30991 layer_factory.hpp:77] Creating layer conv2_2/1/conv
I0523 17:56:45.618872 30991 net.cpp:84] Creating Layer conv2_2/1/conv
I0523 17:56:45.618875 30991 net.cpp:406] conv2_2/1/conv <- conv2_1_conv2_1_0_split_0
I0523 17:56:45.618880 30991 net.cpp:380] conv2_2/1/conv -> conv2_2/1
I0523 17:56:45.619642 30991 net.cpp:122] Setting up conv2_2/1/conv
I0523 17:56:45.619653 30991 net.cpp:129] Top shape: 64 12 16 16 (196608)
I0523 17:56:45.619657 30991 net.cpp:137] Memory required for data: 60818944
I0523 17:56:45.619663 30991 layer_factory.hpp:77] Creating layer conv2_2/1/bn
I0523 17:56:45.619668 30991 net.cpp:84] Creating Layer conv2_2/1/bn
I0523 17:56:45.619670 30991 net.cpp:406] conv2_2/1/bn <- conv2_2/1
I0523 17:56:45.619674 30991 net.cpp:367] conv2_2/1/bn -> conv2_2/1 (in-place)
I0523 17:56:45.619806 30991 net.cpp:122] Setting up conv2_2/1/bn
I0523 17:56:45.619812 30991 net.cpp:129] Top shape: 64 12 16 16 (196608)
I0523 17:56:45.619815 30991 net.cpp:137] Memory required for data: 61605376
I0523 17:56:45.619823 30991 layer_factory.hpp:77] Creating layer conv2_2/1/bn_scale
I0523 17:56:45.619829 30991 net.cpp:84] Creating Layer conv2_2/1/bn_scale
I0523 17:56:45.619832 30991 net.cpp:406] conv2_2/1/bn_scale <- conv2_2/1
I0523 17:56:45.619837 30991 net.cpp:367] conv2_2/1/bn_scale -> conv2_2/1 (in-place)
I0523 17:56:45.619864 30991 layer_factory.hpp:77] Creating layer conv2_2/1/bn_scale
I0523 17:56:45.619940 30991 net.cpp:122] Setting up conv2_2/1/bn_scale
I0523 17:56:45.619947 30991 net.cpp:129] Top shape: 64 12 16 16 (196608)
I0523 17:56:45.619951 30991 net.cpp:137] Memory required for data: 62391808
I0523 17:56:45.619954 30991 layer_factory.hpp:77] Creating layer conv2_2/1/relu
I0523 17:56:45.619961 30991 net.cpp:84] Creating Layer conv2_2/1/relu
I0523 17:56:45.619964 30991 net.cpp:406] conv2_2/1/relu <- conv2_2/1
I0523 17:56:45.619972 30991 net.cpp:367] conv2_2/1/relu -> conv2_2/1 (in-place)
I0523 17:56:45.620364 30991 net.cpp:122] Setting up conv2_2/1/relu
I0523 17:56:45.620376 30991 net.cpp:129] Top shape: 64 12 16 16 (196608)
I0523 17:56:45.620379 30991 net.cpp:137] Memory required for data: 63178240
I0523 17:56:45.620383 30991 layer_factory.hpp:77] Creating layer conv2_2/2/conv
I0523 17:56:45.620389 30991 net.cpp:84] Creating Layer conv2_2/2/conv
I0523 17:56:45.620393 30991 net.cpp:406] conv2_2/2/conv <- conv2_2/1
I0523 17:56:45.620398 30991 net.cpp:380] conv2_2/2/conv -> conv2_2/2/conv
I0523 17:56:45.621161 30991 net.cpp:122] Setting up conv2_2/2/conv
I0523 17:56:45.621172 30991 net.cpp:129] Top shape: 64 12 16 16 (196608)
I0523 17:56:45.621176 30991 net.cpp:137] Memory required for data: 63964672
I0523 17:56:45.621181 30991 layer_factory.hpp:77] Creating layer conv2_2/2/bn
I0523 17:56:45.621186 30991 net.cpp:84] Creating Layer conv2_2/2/bn
I0523 17:56:45.621188 30991 net.cpp:406] conv2_2/2/bn <- conv2_2/2/conv
I0523 17:56:45.621193 30991 net.cpp:367] conv2_2/2/bn -> conv2_2/2/conv (in-place)
I0523 17:56:45.621322 30991 net.cpp:122] Setting up conv2_2/2/bn
I0523 17:56:45.621328 30991 net.cpp:129] Top shape: 64 12 16 16 (196608)
I0523 17:56:45.621331 30991 net.cpp:137] Memory required for data: 64751104
I0523 17:56:45.621337 30991 layer_factory.hpp:77] Creating layer conv2_2/2/conv_conv2_2/2/bn_0_split
I0523 17:56:45.621341 30991 net.cpp:84] Creating Layer conv2_2/2/conv_conv2_2/2/bn_0_split
I0523 17:56:45.621345 30991 net.cpp:406] conv2_2/2/conv_conv2_2/2/bn_0_split <- conv2_2/2/conv
I0523 17:56:45.621348 30991 net.cpp:380] conv2_2/2/conv_conv2_2/2/bn_0_split -> conv2_2/2/conv_conv2_2/2/bn_0_split_0
I0523 17:56:45.621354 30991 net.cpp:380] conv2_2/2/conv_conv2_2/2/bn_0_split -> conv2_2/2/conv_conv2_2/2/bn_0_split_1
I0523 17:56:45.621378 30991 net.cpp:122] Setting up conv2_2/2/conv_conv2_2/2/bn_0_split
I0523 17:56:45.621384 30991 net.cpp:129] Top shape: 64 12 16 16 (196608)
I0523 17:56:45.621388 30991 net.cpp:129] Top shape: 64 12 16 16 (196608)
I0523 17:56:45.621390 30991 net.cpp:137] Memory required for data: 66323968
I0523 17:56:45.621393 30991 layer_factory.hpp:77] Creating layer conv2_2/2/neg
I0523 17:56:45.621398 30991 net.cpp:84] Creating Layer conv2_2/2/neg
I0523 17:56:45.621402 30991 net.cpp:406] conv2_2/2/neg <- conv2_2/2/conv_conv2_2/2/bn_0_split_0
I0523 17:56:45.621405 30991 net.cpp:380] conv2_2/2/neg -> conv2_2/2/neg
I0523 17:56:45.621421 30991 net.cpp:122] Setting up conv2_2/2/neg
I0523 17:56:45.621426 30991 net.cpp:129] Top shape: 64 12 16 16 (196608)
I0523 17:56:45.621429 30991 net.cpp:137] Memory required for data: 67110400
I0523 17:56:45.621433 30991 layer_factory.hpp:77] Creating layer conv2_2/2/concat
I0523 17:56:45.621436 30991 net.cpp:84] Creating Layer conv2_2/2/concat
I0523 17:56:45.621439 30991 net.cpp:406] conv2_2/2/concat <- conv2_2/2/conv_conv2_2/2/bn_0_split_1
I0523 17:56:45.621443 30991 net.cpp:406] conv2_2/2/concat <- conv2_2/2/neg
I0523 17:56:45.621446 30991 net.cpp:380] conv2_2/2/concat -> conv2_2/2
I0523 17:56:45.621462 30991 net.cpp:122] Setting up conv2_2/2/concat
I0523 17:56:45.621466 30991 net.cpp:129] Top shape: 64 24 16 16 (393216)
I0523 17:56:45.621469 30991 net.cpp:137] Memory required for data: 68683264
I0523 17:56:45.621474 30991 layer_factory.hpp:77] Creating layer conv2_2/2/scale
I0523 17:56:45.621477 30991 net.cpp:84] Creating Layer conv2_2/2/scale
I0523 17:56:45.621481 30991 net.cpp:406] conv2_2/2/scale <- conv2_2/2
I0523 17:56:45.621485 30991 net.cpp:367] conv2_2/2/scale -> conv2_2/2 (in-place)
I0523 17:56:45.621512 30991 layer_factory.hpp:77] Creating layer conv2_2/2/scale
I0523 17:56:45.621587 30991 net.cpp:122] Setting up conv2_2/2/scale
I0523 17:56:45.621593 30991 net.cpp:129] Top shape: 64 24 16 16 (393216)
I0523 17:56:45.621596 30991 net.cpp:137] Memory required for data: 70256128
I0523 17:56:45.621601 30991 layer_factory.hpp:77] Creating layer conv2_2/2/relu
I0523 17:56:45.621605 30991 net.cpp:84] Creating Layer conv2_2/2/relu
I0523 17:56:45.621608 30991 net.cpp:406] conv2_2/2/relu <- conv2_2/2
I0523 17:56:45.621618 30991 net.cpp:367] conv2_2/2/relu -> conv2_2/2 (in-place)
I0523 17:56:45.621734 30991 net.cpp:122] Setting up conv2_2/2/relu
I0523 17:56:45.621742 30991 net.cpp:129] Top shape: 64 24 16 16 (393216)
I0523 17:56:45.621745 30991 net.cpp:137] Memory required for data: 71828992
I0523 17:56:45.621748 30991 layer_factory.hpp:77] Creating layer conv2_2/3/conv
I0523 17:56:45.621754 30991 net.cpp:84] Creating Layer conv2_2/3/conv
I0523 17:56:45.621757 30991 net.cpp:406] conv2_2/3/conv <- conv2_2/2
I0523 17:56:45.621762 30991 net.cpp:380] conv2_2/3/conv -> conv2_2/3
I0523 17:56:45.622509 30991 net.cpp:122] Setting up conv2_2/3/conv
I0523 17:56:45.622521 30991 net.cpp:129] Top shape: 64 32 16 16 (524288)
I0523 17:56:45.622524 30991 net.cpp:137] Memory required for data: 73926144
I0523 17:56:45.622529 30991 layer_factory.hpp:77] Creating layer conv2_2/3/bn
I0523 17:56:45.622534 30991 net.cpp:84] Creating Layer conv2_2/3/bn
I0523 17:56:45.622537 30991 net.cpp:406] conv2_2/3/bn <- conv2_2/3
I0523 17:56:45.622541 30991 net.cpp:367] conv2_2/3/bn -> conv2_2/3 (in-place)
I0523 17:56:45.622673 30991 net.cpp:122] Setting up conv2_2/3/bn
I0523 17:56:45.622678 30991 net.cpp:129] Top shape: 64 32 16 16 (524288)
I0523 17:56:45.622681 30991 net.cpp:137] Memory required for data: 76023296
I0523 17:56:45.622687 30991 layer_factory.hpp:77] Creating layer conv2_2/3/bn_scale
I0523 17:56:45.622691 30991 net.cpp:84] Creating Layer conv2_2/3/bn_scale
I0523 17:56:45.622694 30991 net.cpp:406] conv2_2/3/bn_scale <- conv2_2/3
I0523 17:56:45.622699 30991 net.cpp:367] conv2_2/3/bn_scale -> conv2_2/3 (in-place)
I0523 17:56:45.622725 30991 layer_factory.hpp:77] Creating layer conv2_2/3/bn_scale
I0523 17:56:45.622798 30991 net.cpp:122] Setting up conv2_2/3/bn_scale
I0523 17:56:45.622804 30991 net.cpp:129] Top shape: 64 32 16 16 (524288)
I0523 17:56:45.622807 30991 net.cpp:137] Memory required for data: 78120448
I0523 17:56:45.622812 30991 layer_factory.hpp:77] Creating layer conv2_2
I0523 17:56:45.622819 30991 net.cpp:84] Creating Layer conv2_2
I0523 17:56:45.622822 30991 net.cpp:406] conv2_2 <- conv2_2/3
I0523 17:56:45.622826 30991 net.cpp:406] conv2_2 <- conv2_1_conv2_1_0_split_1
I0523 17:56:45.622831 30991 net.cpp:380] conv2_2 -> conv2_2
I0523 17:56:45.622845 30991 net.cpp:122] Setting up conv2_2
I0523 17:56:45.622850 30991 net.cpp:129] Top shape: 64 32 16 16 (524288)
I0523 17:56:45.622853 30991 net.cpp:137] Memory required for data: 80217600
I0523 17:56:45.622856 30991 layer_factory.hpp:77] Creating layer conv2_2_conv2_2_0_split
I0523 17:56:45.622860 30991 net.cpp:84] Creating Layer conv2_2_conv2_2_0_split
I0523 17:56:45.622864 30991 net.cpp:406] conv2_2_conv2_2_0_split <- conv2_2
I0523 17:56:45.622867 30991 net.cpp:380] conv2_2_conv2_2_0_split -> conv2_2_conv2_2_0_split_0
I0523 17:56:45.622874 30991 net.cpp:380] conv2_2_conv2_2_0_split -> conv2_2_conv2_2_0_split_1
I0523 17:56:45.622895 30991 net.cpp:122] Setting up conv2_2_conv2_2_0_split
I0523 17:56:45.622901 30991 net.cpp:129] Top shape: 64 32 16 16 (524288)
I0523 17:56:45.622905 30991 net.cpp:129] Top shape: 64 32 16 16 (524288)
I0523 17:56:45.622907 30991 net.cpp:137] Memory required for data: 84411904
I0523 17:56:45.622910 30991 layer_factory.hpp:77] Creating layer conv2_3/1/conv
I0523 17:56:45.622916 30991 net.cpp:84] Creating Layer conv2_3/1/conv
I0523 17:56:45.622920 30991 net.cpp:406] conv2_3/1/conv <- conv2_2_conv2_2_0_split_0
I0523 17:56:45.622923 30991 net.cpp:380] conv2_3/1/conv -> conv2_3/1
I0523 17:56:45.623682 30991 net.cpp:122] Setting up conv2_3/1/conv
I0523 17:56:45.623692 30991 net.cpp:129] Top shape: 64 12 16 16 (196608)
I0523 17:56:45.623697 30991 net.cpp:137] Memory required for data: 85198336
I0523 17:56:45.623700 30991 layer_factory.hpp:77] Creating layer conv2_3/1/bn
I0523 17:56:45.623708 30991 net.cpp:84] Creating Layer conv2_3/1/bn
I0523 17:56:45.623711 30991 net.cpp:406] conv2_3/1/bn <- conv2_3/1
I0523 17:56:45.623718 30991 net.cpp:367] conv2_3/1/bn -> conv2_3/1 (in-place)
I0523 17:56:45.623849 30991 net.cpp:122] Setting up conv2_3/1/bn
I0523 17:56:45.623859 30991 net.cpp:129] Top shape: 64 12 16 16 (196608)
I0523 17:56:45.623862 30991 net.cpp:137] Memory required for data: 85984768
I0523 17:56:45.623868 30991 layer_factory.hpp:77] Creating layer conv2_3/1/bn_scale
I0523 17:56:45.623873 30991 net.cpp:84] Creating Layer conv2_3/1/bn_scale
I0523 17:56:45.623877 30991 net.cpp:406] conv2_3/1/bn_scale <- conv2_3/1
I0523 17:56:45.623880 30991 net.cpp:367] conv2_3/1/bn_scale -> conv2_3/1 (in-place)
I0523 17:56:45.623908 30991 layer_factory.hpp:77] Creating layer conv2_3/1/bn_scale
I0523 17:56:45.623984 30991 net.cpp:122] Setting up conv2_3/1/bn_scale
I0523 17:56:45.623991 30991 net.cpp:129] Top shape: 64 12 16 16 (196608)
I0523 17:56:45.623994 30991 net.cpp:137] Memory required for data: 86771200
I0523 17:56:45.623999 30991 layer_factory.hpp:77] Creating layer conv2_3/1/relu
I0523 17:56:45.624006 30991 net.cpp:84] Creating Layer conv2_3/1/relu
I0523 17:56:45.624011 30991 net.cpp:406] conv2_3/1/relu <- conv2_3/1
I0523 17:56:45.624016 30991 net.cpp:367] conv2_3/1/relu -> conv2_3/1 (in-place)
I0523 17:56:45.624155 30991 net.cpp:122] Setting up conv2_3/1/relu
I0523 17:56:45.624164 30991 net.cpp:129] Top shape: 64 12 16 16 (196608)
I0523 17:56:45.624167 30991 net.cpp:137] Memory required for data: 87557632
I0523 17:56:45.624171 30991 layer_factory.hpp:77] Creating layer conv2_3/2/conv
I0523 17:56:45.624176 30991 net.cpp:84] Creating Layer conv2_3/2/conv
I0523 17:56:45.624181 30991 net.cpp:406] conv2_3/2/conv <- conv2_3/1
I0523 17:56:45.624184 30991 net.cpp:380] conv2_3/2/conv -> conv2_3/2/conv
I0523 17:56:45.624954 30991 net.cpp:122] Setting up conv2_3/2/conv
I0523 17:56:45.624966 30991 net.cpp:129] Top shape: 64 12 16 16 (196608)
I0523 17:56:45.624970 30991 net.cpp:137] Memory required for data: 88344064
I0523 17:56:45.624974 30991 layer_factory.hpp:77] Creating layer conv2_3/2/bn
I0523 17:56:45.624979 30991 net.cpp:84] Creating Layer conv2_3/2/bn
I0523 17:56:45.624984 30991 net.cpp:406] conv2_3/2/bn <- conv2_3/2/conv
I0523 17:56:45.624987 30991 net.cpp:367] conv2_3/2/bn -> conv2_3/2/conv (in-place)
I0523 17:56:45.625123 30991 net.cpp:122] Setting up conv2_3/2/bn
I0523 17:56:45.625128 30991 net.cpp:129] Top shape: 64 12 16 16 (196608)
I0523 17:56:45.625133 30991 net.cpp:137] Memory required for data: 89130496
I0523 17:56:45.625138 30991 layer_factory.hpp:77] Creating layer conv2_3/2/conv_conv2_3/2/bn_0_split
I0523 17:56:45.625141 30991 net.cpp:84] Creating Layer conv2_3/2/conv_conv2_3/2/bn_0_split
I0523 17:56:45.625144 30991 net.cpp:406] conv2_3/2/conv_conv2_3/2/bn_0_split <- conv2_3/2/conv
I0523 17:56:45.625149 30991 net.cpp:380] conv2_3/2/conv_conv2_3/2/bn_0_split -> conv2_3/2/conv_conv2_3/2/bn_0_split_0
I0523 17:56:45.625154 30991 net.cpp:380] conv2_3/2/conv_conv2_3/2/bn_0_split -> conv2_3/2/conv_conv2_3/2/bn_0_split_1
I0523 17:56:45.625180 30991 net.cpp:122] Setting up conv2_3/2/conv_conv2_3/2/bn_0_split
I0523 17:56:45.625185 30991 net.cpp:129] Top shape: 64 12 16 16 (196608)
I0523 17:56:45.625190 30991 net.cpp:129] Top shape: 64 12 16 16 (196608)
I0523 17:56:45.625192 30991 net.cpp:137] Memory required for data: 90703360
I0523 17:56:45.625195 30991 layer_factory.hpp:77] Creating layer conv2_3/2/neg
I0523 17:56:45.625200 30991 net.cpp:84] Creating Layer conv2_3/2/neg
I0523 17:56:45.625203 30991 net.cpp:406] conv2_3/2/neg <- conv2_3/2/conv_conv2_3/2/bn_0_split_0
I0523 17:56:45.625207 30991 net.cpp:380] conv2_3/2/neg -> conv2_3/2/neg
I0523 17:56:45.625223 30991 net.cpp:122] Setting up conv2_3/2/neg
I0523 17:56:45.625228 30991 net.cpp:129] Top shape: 64 12 16 16 (196608)
I0523 17:56:45.625231 30991 net.cpp:137] Memory required for data: 91489792
I0523 17:56:45.625234 30991 layer_factory.hpp:77] Creating layer conv2_3/2/concat
I0523 17:56:45.625238 30991 net.cpp:84] Creating Layer conv2_3/2/concat
I0523 17:56:45.625241 30991 net.cpp:406] conv2_3/2/concat <- conv2_3/2/conv_conv2_3/2/bn_0_split_1
I0523 17:56:45.625246 30991 net.cpp:406] conv2_3/2/concat <- conv2_3/2/neg
I0523 17:56:45.625249 30991 net.cpp:380] conv2_3/2/concat -> conv2_3/2
I0523 17:56:45.625264 30991 net.cpp:122] Setting up conv2_3/2/concat
I0523 17:56:45.625273 30991 net.cpp:129] Top shape: 64 24 16 16 (393216)
I0523 17:56:45.625277 30991 net.cpp:137] Memory required for data: 93062656
I0523 17:56:45.625279 30991 layer_factory.hpp:77] Creating layer conv2_3/2/scale
I0523 17:56:45.625283 30991 net.cpp:84] Creating Layer conv2_3/2/scale
I0523 17:56:45.625286 30991 net.cpp:406] conv2_3/2/scale <- conv2_3/2
I0523 17:56:45.625290 30991 net.cpp:367] conv2_3/2/scale -> conv2_3/2 (in-place)
I0523 17:56:45.625319 30991 layer_factory.hpp:77] Creating layer conv2_3/2/scale
I0523 17:56:45.625398 30991 net.cpp:122] Setting up conv2_3/2/scale
I0523 17:56:45.625404 30991 net.cpp:129] Top shape: 64 24 16 16 (393216)
I0523 17:56:45.625407 30991 net.cpp:137] Memory required for data: 94635520
I0523 17:56:45.625411 30991 layer_factory.hpp:77] Creating layer conv2_3/2/relu
I0523 17:56:45.625416 30991 net.cpp:84] Creating Layer conv2_3/2/relu
I0523 17:56:45.625419 30991 net.cpp:406] conv2_3/2/relu <- conv2_3/2
I0523 17:56:45.625422 30991 net.cpp:367] conv2_3/2/relu -> conv2_3/2 (in-place)
I0523 17:56:45.625545 30991 net.cpp:122] Setting up conv2_3/2/relu
I0523 17:56:45.625552 30991 net.cpp:129] Top shape: 64 24 16 16 (393216)
I0523 17:56:45.625555 30991 net.cpp:137] Memory required for data: 96208384
I0523 17:56:45.625558 30991 layer_factory.hpp:77] Creating layer conv2_3/3/conv
I0523 17:56:45.625564 30991 net.cpp:84] Creating Layer conv2_3/3/conv
I0523 17:56:45.625567 30991 net.cpp:406] conv2_3/3/conv <- conv2_3/2
I0523 17:56:45.625572 30991 net.cpp:380] conv2_3/3/conv -> conv2_3/3
I0523 17:56:45.626340 30991 net.cpp:122] Setting up conv2_3/3/conv
I0523 17:56:45.626353 30991 net.cpp:129] Top shape: 64 32 16 16 (524288)
I0523 17:56:45.626355 30991 net.cpp:137] Memory required for data: 98305536
I0523 17:56:45.626360 30991 layer_factory.hpp:77] Creating layer conv2_3/3/bn
I0523 17:56:45.626365 30991 net.cpp:84] Creating Layer conv2_3/3/bn
I0523 17:56:45.626368 30991 net.cpp:406] conv2_3/3/bn <- conv2_3/3
I0523 17:56:45.626374 30991 net.cpp:367] conv2_3/3/bn -> conv2_3/3 (in-place)
I0523 17:56:45.626510 30991 net.cpp:122] Setting up conv2_3/3/bn
I0523 17:56:45.626518 30991 net.cpp:129] Top shape: 64 32 16 16 (524288)
I0523 17:56:45.626520 30991 net.cpp:137] Memory required for data: 100402688
I0523 17:56:45.626529 30991 layer_factory.hpp:77] Creating layer conv2_3/3/bn_scale
I0523 17:56:45.626534 30991 net.cpp:84] Creating Layer conv2_3/3/bn_scale
I0523 17:56:45.626538 30991 net.cpp:406] conv2_3/3/bn_scale <- conv2_3/3
I0523 17:56:45.626543 30991 net.cpp:367] conv2_3/3/bn_scale -> conv2_3/3 (in-place)
I0523 17:56:45.626570 30991 layer_factory.hpp:77] Creating layer conv2_3/3/bn_scale
I0523 17:56:45.626647 30991 net.cpp:122] Setting up conv2_3/3/bn_scale
I0523 17:56:45.626653 30991 net.cpp:129] Top shape: 64 32 16 16 (524288)
I0523 17:56:45.626657 30991 net.cpp:137] Memory required for data: 102499840
I0523 17:56:45.626662 30991 layer_factory.hpp:77] Creating layer conv2_3
I0523 17:56:45.626667 30991 net.cpp:84] Creating Layer conv2_3
I0523 17:56:45.626670 30991 net.cpp:406] conv2_3 <- conv2_3/3
I0523 17:56:45.626674 30991 net.cpp:406] conv2_3 <- conv2_2_conv2_2_0_split_1
I0523 17:56:45.626678 30991 net.cpp:380] conv2_3 -> conv2_3
I0523 17:56:45.626693 30991 net.cpp:122] Setting up conv2_3
I0523 17:56:45.626698 30991 net.cpp:129] Top shape: 64 32 16 16 (524288)
I0523 17:56:45.626701 30991 net.cpp:137] Memory required for data: 104596992
I0523 17:56:45.626704 30991 layer_factory.hpp:77] Creating layer conv2_3_conv2_3_0_split
I0523 17:56:45.626708 30991 net.cpp:84] Creating Layer conv2_3_conv2_3_0_split
I0523 17:56:45.626711 30991 net.cpp:406] conv2_3_conv2_3_0_split <- conv2_3
I0523 17:56:45.626716 30991 net.cpp:380] conv2_3_conv2_3_0_split -> conv2_3_conv2_3_0_split_0
I0523 17:56:45.626721 30991 net.cpp:380] conv2_3_conv2_3_0_split -> conv2_3_conv2_3_0_split_1
I0523 17:56:45.626745 30991 net.cpp:122] Setting up conv2_3_conv2_3_0_split
I0523 17:56:45.626751 30991 net.cpp:129] Top shape: 64 32 16 16 (524288)
I0523 17:56:45.626755 30991 net.cpp:129] Top shape: 64 32 16 16 (524288)
I0523 17:56:45.626761 30991 net.cpp:137] Memory required for data: 108791296
I0523 17:56:45.626765 30991 layer_factory.hpp:77] Creating layer conv3_1/1/conv
I0523 17:56:45.626770 30991 net.cpp:84] Creating Layer conv3_1/1/conv
I0523 17:56:45.626773 30991 net.cpp:406] conv3_1/1/conv <- conv2_3_conv2_3_0_split_0
I0523 17:56:45.626778 30991 net.cpp:380] conv3_1/1/conv -> conv3_1/1
I0523 17:56:45.627800 30991 net.cpp:122] Setting up conv3_1/1/conv
I0523 17:56:45.627811 30991 net.cpp:129] Top shape: 64 24 8 8 (98304)
I0523 17:56:45.627815 30991 net.cpp:137] Memory required for data: 109184512
I0523 17:56:45.627820 30991 layer_factory.hpp:77] Creating layer conv3_1/1/bn
I0523 17:56:45.627825 30991 net.cpp:84] Creating Layer conv3_1/1/bn
I0523 17:56:45.627827 30991 net.cpp:406] conv3_1/1/bn <- conv3_1/1
I0523 17:56:45.627832 30991 net.cpp:367] conv3_1/1/bn -> conv3_1/1 (in-place)
I0523 17:56:45.627972 30991 net.cpp:122] Setting up conv3_1/1/bn
I0523 17:56:45.627979 30991 net.cpp:129] Top shape: 64 24 8 8 (98304)
I0523 17:56:45.627981 30991 net.cpp:137] Memory required for data: 109577728
I0523 17:56:45.627987 30991 layer_factory.hpp:77] Creating layer conv3_1/1/bn_scale
I0523 17:56:45.627992 30991 net.cpp:84] Creating Layer conv3_1/1/bn_scale
I0523 17:56:45.627995 30991 net.cpp:406] conv3_1/1/bn_scale <- conv3_1/1
I0523 17:56:45.628000 30991 net.cpp:367] conv3_1/1/bn_scale -> conv3_1/1 (in-place)
I0523 17:56:45.628027 30991 layer_factory.hpp:77] Creating layer conv3_1/1/bn_scale
I0523 17:56:45.628114 30991 net.cpp:122] Setting up conv3_1/1/bn_scale
I0523 17:56:45.628121 30991 net.cpp:129] Top shape: 64 24 8 8 (98304)
I0523 17:56:45.628124 30991 net.cpp:137] Memory required for data: 109970944
I0523 17:56:45.628129 30991 layer_factory.hpp:77] Creating layer conv3_1/1/relu
I0523 17:56:45.628137 30991 net.cpp:84] Creating Layer conv3_1/1/relu
I0523 17:56:45.628141 30991 net.cpp:406] conv3_1/1/relu <- conv3_1/1
I0523 17:56:45.628145 30991 net.cpp:367] conv3_1/1/relu -> conv3_1/1 (in-place)
I0523 17:56:45.628274 30991 net.cpp:122] Setting up conv3_1/1/relu
I0523 17:56:45.628283 30991 net.cpp:129] Top shape: 64 24 8 8 (98304)
I0523 17:56:45.628285 30991 net.cpp:137] Memory required for data: 110364160
I0523 17:56:45.628289 30991 layer_factory.hpp:77] Creating layer conv3_1/2/conv
I0523 17:56:45.628295 30991 net.cpp:84] Creating Layer conv3_1/2/conv
I0523 17:56:45.628298 30991 net.cpp:406] conv3_1/2/conv <- conv3_1/1
I0523 17:56:45.628304 30991 net.cpp:380] conv3_1/2/conv -> conv3_1/2/conv
I0523 17:56:45.629688 30991 net.cpp:122] Setting up conv3_1/2/conv
I0523 17:56:45.629704 30991 net.cpp:129] Top shape: 64 24 8 8 (98304)
I0523 17:56:45.629707 30991 net.cpp:137] Memory required for data: 110757376
I0523 17:56:45.629714 30991 layer_factory.hpp:77] Creating layer conv3_1/2/bn
I0523 17:56:45.629719 30991 net.cpp:84] Creating Layer conv3_1/2/bn
I0523 17:56:45.629722 30991 net.cpp:406] conv3_1/2/bn <- conv3_1/2/conv
I0523 17:56:45.629727 30991 net.cpp:367] conv3_1/2/bn -> conv3_1/2/conv (in-place)
I0523 17:56:45.629874 30991 net.cpp:122] Setting up conv3_1/2/bn
I0523 17:56:45.629881 30991 net.cpp:129] Top shape: 64 24 8 8 (98304)
I0523 17:56:45.629884 30991 net.cpp:137] Memory required for data: 111150592
I0523 17:56:45.629890 30991 layer_factory.hpp:77] Creating layer conv3_1/2/conv_conv3_1/2/bn_0_split
I0523 17:56:45.629895 30991 net.cpp:84] Creating Layer conv3_1/2/conv_conv3_1/2/bn_0_split
I0523 17:56:45.629899 30991 net.cpp:406] conv3_1/2/conv_conv3_1/2/bn_0_split <- conv3_1/2/conv
I0523 17:56:45.629902 30991 net.cpp:380] conv3_1/2/conv_conv3_1/2/bn_0_split -> conv3_1/2/conv_conv3_1/2/bn_0_split_0
I0523 17:56:45.629909 30991 net.cpp:380] conv3_1/2/conv_conv3_1/2/bn_0_split -> conv3_1/2/conv_conv3_1/2/bn_0_split_1
I0523 17:56:45.629936 30991 net.cpp:122] Setting up conv3_1/2/conv_conv3_1/2/bn_0_split
I0523 17:56:45.629945 30991 net.cpp:129] Top shape: 64 24 8 8 (98304)
I0523 17:56:45.629951 30991 net.cpp:129] Top shape: 64 24 8 8 (98304)
I0523 17:56:45.629953 30991 net.cpp:137] Memory required for data: 111937024
I0523 17:56:45.629963 30991 layer_factory.hpp:77] Creating layer conv3_1/2/neg
I0523 17:56:45.629968 30991 net.cpp:84] Creating Layer conv3_1/2/neg
I0523 17:56:45.629971 30991 net.cpp:406] conv3_1/2/neg <- conv3_1/2/conv_conv3_1/2/bn_0_split_0
I0523 17:56:45.629976 30991 net.cpp:380] conv3_1/2/neg -> conv3_1/2/neg
I0523 17:56:45.629993 30991 net.cpp:122] Setting up conv3_1/2/neg
I0523 17:56:45.629998 30991 net.cpp:129] Top shape: 64 24 8 8 (98304)
I0523 17:56:45.630002 30991 net.cpp:137] Memory required for data: 112330240
I0523 17:56:45.630004 30991 layer_factory.hpp:77] Creating layer conv3_1/2/concat
I0523 17:56:45.630009 30991 net.cpp:84] Creating Layer conv3_1/2/concat
I0523 17:56:45.630012 30991 net.cpp:406] conv3_1/2/concat <- conv3_1/2/conv_conv3_1/2/bn_0_split_1
I0523 17:56:45.630017 30991 net.cpp:406] conv3_1/2/concat <- conv3_1/2/neg
I0523 17:56:45.630020 30991 net.cpp:380] conv3_1/2/concat -> conv3_1/2
I0523 17:56:45.630036 30991 net.cpp:122] Setting up conv3_1/2/concat
I0523 17:56:45.630043 30991 net.cpp:129] Top shape: 64 48 8 8 (196608)
I0523 17:56:45.630045 30991 net.cpp:137] Memory required for data: 113116672
I0523 17:56:45.630048 30991 layer_factory.hpp:77] Creating layer conv3_1/2/scale
I0523 17:56:45.630053 30991 net.cpp:84] Creating Layer conv3_1/2/scale
I0523 17:56:45.630056 30991 net.cpp:406] conv3_1/2/scale <- conv3_1/2
I0523 17:56:45.630060 30991 net.cpp:367] conv3_1/2/scale -> conv3_1/2 (in-place)
I0523 17:56:45.630095 30991 layer_factory.hpp:77] Creating layer conv3_1/2/scale
I0523 17:56:45.630177 30991 net.cpp:122] Setting up conv3_1/2/scale
I0523 17:56:45.630183 30991 net.cpp:129] Top shape: 64 48 8 8 (196608)
I0523 17:56:45.630187 30991 net.cpp:137] Memory required for data: 113903104
I0523 17:56:45.630192 30991 layer_factory.hpp:77] Creating layer conv3_1/2/relu
I0523 17:56:45.630197 30991 net.cpp:84] Creating Layer conv3_1/2/relu
I0523 17:56:45.630199 30991 net.cpp:406] conv3_1/2/relu <- conv3_1/2
I0523 17:56:45.630203 30991 net.cpp:367] conv3_1/2/relu -> conv3_1/2 (in-place)
I0523 17:56:45.630334 30991 net.cpp:122] Setting up conv3_1/2/relu
I0523 17:56:45.630343 30991 net.cpp:129] Top shape: 64 48 8 8 (196608)
I0523 17:56:45.630347 30991 net.cpp:137] Memory required for data: 114689536
I0523 17:56:45.630349 30991 layer_factory.hpp:77] Creating layer conv3_1/3/conv
I0523 17:56:45.630355 30991 net.cpp:84] Creating Layer conv3_1/3/conv
I0523 17:56:45.630358 30991 net.cpp:406] conv3_1/3/conv <- conv3_1/2
I0523 17:56:45.630363 30991 net.cpp:380] conv3_1/3/conv -> conv3_1/3
I0523 17:56:45.631216 30991 net.cpp:122] Setting up conv3_1/3/conv
I0523 17:56:45.631227 30991 net.cpp:129] Top shape: 64 64 8 8 (262144)
I0523 17:56:45.631230 30991 net.cpp:137] Memory required for data: 115738112
I0523 17:56:45.631235 30991 layer_factory.hpp:77] Creating layer conv3_1/3/bn
I0523 17:56:45.631240 30991 net.cpp:84] Creating Layer conv3_1/3/bn
I0523 17:56:45.631243 30991 net.cpp:406] conv3_1/3/bn <- conv3_1/3
I0523 17:56:45.631248 30991 net.cpp:367] conv3_1/3/bn -> conv3_1/3 (in-place)
I0523 17:56:45.631389 30991 net.cpp:122] Setting up conv3_1/3/bn
I0523 17:56:45.631395 30991 net.cpp:129] Top shape: 64 64 8 8 (262144)
I0523 17:56:45.631398 30991 net.cpp:137] Memory required for data: 116786688
I0523 17:56:45.631404 30991 layer_factory.hpp:77] Creating layer conv3_1/3/bn_scale
I0523 17:56:45.631408 30991 net.cpp:84] Creating Layer conv3_1/3/bn_scale
I0523 17:56:45.631412 30991 net.cpp:406] conv3_1/3/bn_scale <- conv3_1/3
I0523 17:56:45.631415 30991 net.cpp:367] conv3_1/3/bn_scale -> conv3_1/3 (in-place)
I0523 17:56:45.631443 30991 layer_factory.hpp:77] Creating layer conv3_1/3/bn_scale
I0523 17:56:45.631525 30991 net.cpp:122] Setting up conv3_1/3/bn_scale
I0523 17:56:45.631531 30991 net.cpp:129] Top shape: 64 64 8 8 (262144)
I0523 17:56:45.631534 30991 net.cpp:137] Memory required for data: 117835264
I0523 17:56:45.631538 30991 layer_factory.hpp:77] Creating layer conv3_1/proj
I0523 17:56:45.631544 30991 net.cpp:84] Creating Layer conv3_1/proj
I0523 17:56:45.631547 30991 net.cpp:406] conv3_1/proj <- conv2_3_conv2_3_0_split_1
I0523 17:56:45.631556 30991 net.cpp:380] conv3_1/proj -> conv3_1/proj
I0523 17:56:45.632398 30991 net.cpp:122] Setting up conv3_1/proj
I0523 17:56:45.632411 30991 net.cpp:129] Top shape: 64 64 8 8 (262144)
I0523 17:56:45.632416 30991 net.cpp:137] Memory required for data: 118883840
I0523 17:56:45.632421 30991 layer_factory.hpp:77] Creating layer conv3_1/proj_bn
I0523 17:56:45.632426 30991 net.cpp:84] Creating Layer conv3_1/proj_bn
I0523 17:56:45.632429 30991 net.cpp:406] conv3_1/proj_bn <- conv3_1/proj
I0523 17:56:45.632434 30991 net.cpp:367] conv3_1/proj_bn -> conv3_1/proj (in-place)
I0523 17:56:45.632573 30991 net.cpp:122] Setting up conv3_1/proj_bn
I0523 17:56:45.632580 30991 net.cpp:129] Top shape: 64 64 8 8 (262144)
I0523 17:56:45.632583 30991 net.cpp:137] Memory required for data: 119932416
I0523 17:56:45.632588 30991 layer_factory.hpp:77] Creating layer conv3_1/proj_bn_scale
I0523 17:56:45.632593 30991 net.cpp:84] Creating Layer conv3_1/proj_bn_scale
I0523 17:56:45.632596 30991 net.cpp:406] conv3_1/proj_bn_scale <- conv3_1/proj
I0523 17:56:45.632601 30991 net.cpp:367] conv3_1/proj_bn_scale -> conv3_1/proj (in-place)
I0523 17:56:45.632628 30991 layer_factory.hpp:77] Creating layer conv3_1/proj_bn_scale
I0523 17:56:45.632710 30991 net.cpp:122] Setting up conv3_1/proj_bn_scale
I0523 17:56:45.632717 30991 net.cpp:129] Top shape: 64 64 8 8 (262144)
I0523 17:56:45.632720 30991 net.cpp:137] Memory required for data: 120980992
I0523 17:56:45.632725 30991 layer_factory.hpp:77] Creating layer conv3_1
I0523 17:56:45.632730 30991 net.cpp:84] Creating Layer conv3_1
I0523 17:56:45.632732 30991 net.cpp:406] conv3_1 <- conv3_1/3
I0523 17:56:45.632736 30991 net.cpp:406] conv3_1 <- conv3_1/proj
I0523 17:56:45.632740 30991 net.cpp:380] conv3_1 -> conv3_1
I0523 17:56:45.632758 30991 net.cpp:122] Setting up conv3_1
I0523 17:56:45.632763 30991 net.cpp:129] Top shape: 64 64 8 8 (262144)
I0523 17:56:45.632766 30991 net.cpp:137] Memory required for data: 122029568
I0523 17:56:45.632768 30991 layer_factory.hpp:77] Creating layer conv3_1_conv3_1_0_split
I0523 17:56:45.632773 30991 net.cpp:84] Creating Layer conv3_1_conv3_1_0_split
I0523 17:56:45.632776 30991 net.cpp:406] conv3_1_conv3_1_0_split <- conv3_1
I0523 17:56:45.632781 30991 net.cpp:380] conv3_1_conv3_1_0_split -> conv3_1_conv3_1_0_split_0
I0523 17:56:45.632786 30991 net.cpp:380] conv3_1_conv3_1_0_split -> conv3_1_conv3_1_0_split_1
I0523 17:56:45.632812 30991 net.cpp:122] Setting up conv3_1_conv3_1_0_split
I0523 17:56:45.632817 30991 net.cpp:129] Top shape: 64 64 8 8 (262144)
I0523 17:56:45.632820 30991 net.cpp:129] Top shape: 64 64 8 8 (262144)
I0523 17:56:45.632822 30991 net.cpp:137] Memory required for data: 124126720
I0523 17:56:45.632825 30991 layer_factory.hpp:77] Creating layer conv3_2/1/conv
I0523 17:56:45.632832 30991 net.cpp:84] Creating Layer conv3_2/1/conv
I0523 17:56:45.632834 30991 net.cpp:406] conv3_2/1/conv <- conv3_1_conv3_1_0_split_0
I0523 17:56:45.632839 30991 net.cpp:380] conv3_2/1/conv -> conv3_2/1
I0523 17:56:45.633618 30991 net.cpp:122] Setting up conv3_2/1/conv
I0523 17:56:45.633630 30991 net.cpp:129] Top shape: 64 24 8 8 (98304)
I0523 17:56:45.633635 30991 net.cpp:137] Memory required for data: 124519936
I0523 17:56:45.633640 30991 layer_factory.hpp:77] Creating layer conv3_2/1/bn
I0523 17:56:45.633644 30991 net.cpp:84] Creating Layer conv3_2/1/bn
I0523 17:56:45.633647 30991 net.cpp:406] conv3_2/1/bn <- conv3_2/1
I0523 17:56:45.633651 30991 net.cpp:367] conv3_2/1/bn -> conv3_2/1 (in-place)
I0523 17:56:45.633796 30991 net.cpp:122] Setting up conv3_2/1/bn
I0523 17:56:45.633802 30991 net.cpp:129] Top shape: 64 24 8 8 (98304)
I0523 17:56:45.633805 30991 net.cpp:137] Memory required for data: 124913152
I0523 17:56:45.633811 30991 layer_factory.hpp:77] Creating layer conv3_2/1/bn_scale
I0523 17:56:45.633816 30991 net.cpp:84] Creating Layer conv3_2/1/bn_scale
I0523 17:56:45.633819 30991 net.cpp:406] conv3_2/1/bn_scale <- conv3_2/1
I0523 17:56:45.633823 30991 net.cpp:367] conv3_2/1/bn_scale -> conv3_2/1 (in-place)
I0523 17:56:45.633851 30991 layer_factory.hpp:77] Creating layer conv3_2/1/bn_scale
I0523 17:56:45.633935 30991 net.cpp:122] Setting up conv3_2/1/bn_scale
I0523 17:56:45.633942 30991 net.cpp:129] Top shape: 64 24 8 8 (98304)
I0523 17:56:45.633945 30991 net.cpp:137] Memory required for data: 125306368
I0523 17:56:45.633950 30991 layer_factory.hpp:77] Creating layer conv3_2/1/relu
I0523 17:56:45.633955 30991 net.cpp:84] Creating Layer conv3_2/1/relu
I0523 17:56:45.633957 30991 net.cpp:406] conv3_2/1/relu <- conv3_2/1
I0523 17:56:45.633960 30991 net.cpp:367] conv3_2/1/relu -> conv3_2/1 (in-place)
I0523 17:56:45.634093 30991 net.cpp:122] Setting up conv3_2/1/relu
I0523 17:56:45.634100 30991 net.cpp:129] Top shape: 64 24 8 8 (98304)
I0523 17:56:45.634104 30991 net.cpp:137] Memory required for data: 125699584
I0523 17:56:45.634107 30991 layer_factory.hpp:77] Creating layer conv3_2/2/conv
I0523 17:56:45.634112 30991 net.cpp:84] Creating Layer conv3_2/2/conv
I0523 17:56:45.634116 30991 net.cpp:406] conv3_2/2/conv <- conv3_2/1
I0523 17:56:45.634120 30991 net.cpp:380] conv3_2/2/conv -> conv3_2/2/conv
I0523 17:56:45.634923 30991 net.cpp:122] Setting up conv3_2/2/conv
I0523 17:56:45.634934 30991 net.cpp:129] Top shape: 64 24 8 8 (98304)
I0523 17:56:45.634938 30991 net.cpp:137] Memory required for data: 126092800
I0523 17:56:45.634943 30991 layer_factory.hpp:77] Creating layer conv3_2/2/bn
I0523 17:56:45.634948 30991 net.cpp:84] Creating Layer conv3_2/2/bn
I0523 17:56:45.634951 30991 net.cpp:406] conv3_2/2/bn <- conv3_2/2/conv
I0523 17:56:45.634955 30991 net.cpp:367] conv3_2/2/bn -> conv3_2/2/conv (in-place)
I0523 17:56:45.635100 30991 net.cpp:122] Setting up conv3_2/2/bn
I0523 17:56:45.635107 30991 net.cpp:129] Top shape: 64 24 8 8 (98304)
I0523 17:56:45.635109 30991 net.cpp:137] Memory required for data: 126486016
I0523 17:56:45.635115 30991 layer_factory.hpp:77] Creating layer conv3_2/2/conv_conv3_2/2/bn_0_split
I0523 17:56:45.635119 30991 net.cpp:84] Creating Layer conv3_2/2/conv_conv3_2/2/bn_0_split
I0523 17:56:45.635123 30991 net.cpp:406] conv3_2/2/conv_conv3_2/2/bn_0_split <- conv3_2/2/conv
I0523 17:56:45.635126 30991 net.cpp:380] conv3_2/2/conv_conv3_2/2/bn_0_split -> conv3_2/2/conv_conv3_2/2/bn_0_split_0
I0523 17:56:45.635133 30991 net.cpp:380] conv3_2/2/conv_conv3_2/2/bn_0_split -> conv3_2/2/conv_conv3_2/2/bn_0_split_1
I0523 17:56:45.635159 30991 net.cpp:122] Setting up conv3_2/2/conv_conv3_2/2/bn_0_split
I0523 17:56:45.635164 30991 net.cpp:129] Top shape: 64 24 8 8 (98304)
I0523 17:56:45.635169 30991 net.cpp:129] Top shape: 64 24 8 8 (98304)
I0523 17:56:45.635171 30991 net.cpp:137] Memory required for data: 127272448
I0523 17:56:45.635174 30991 layer_factory.hpp:77] Creating layer conv3_2/2/neg
I0523 17:56:45.635179 30991 net.cpp:84] Creating Layer conv3_2/2/neg
I0523 17:56:45.635181 30991 net.cpp:406] conv3_2/2/neg <- conv3_2/2/conv_conv3_2/2/bn_0_split_0
I0523 17:56:45.635186 30991 net.cpp:380] conv3_2/2/neg -> conv3_2/2/neg
I0523 17:56:45.635202 30991 net.cpp:122] Setting up conv3_2/2/neg
I0523 17:56:45.635207 30991 net.cpp:129] Top shape: 64 24 8 8 (98304)
I0523 17:56:45.635210 30991 net.cpp:137] Memory required for data: 127665664
I0523 17:56:45.635213 30991 layer_factory.hpp:77] Creating layer conv3_2/2/concat
I0523 17:56:45.635217 30991 net.cpp:84] Creating Layer conv3_2/2/concat
I0523 17:56:45.635221 30991 net.cpp:406] conv3_2/2/concat <- conv3_2/2/conv_conv3_2/2/bn_0_split_1
I0523 17:56:45.635224 30991 net.cpp:406] conv3_2/2/concat <- conv3_2/2/neg
I0523 17:56:45.635228 30991 net.cpp:380] conv3_2/2/concat -> conv3_2/2
I0523 17:56:45.635244 30991 net.cpp:122] Setting up conv3_2/2/concat
I0523 17:56:45.635249 30991 net.cpp:129] Top shape: 64 48 8 8 (196608)
I0523 17:56:45.635252 30991 net.cpp:137] Memory required for data: 128452096
I0523 17:56:45.635255 30991 layer_factory.hpp:77] Creating layer conv3_2/2/scale
I0523 17:56:45.635259 30991 net.cpp:84] Creating Layer conv3_2/2/scale
I0523 17:56:45.635263 30991 net.cpp:406] conv3_2/2/scale <- conv3_2/2
I0523 17:56:45.635267 30991 net.cpp:367] conv3_2/2/scale -> conv3_2/2 (in-place)
I0523 17:56:45.635300 30991 layer_factory.hpp:77] Creating layer conv3_2/2/scale
I0523 17:56:45.635382 30991 net.cpp:122] Setting up conv3_2/2/scale
I0523 17:56:45.635388 30991 net.cpp:129] Top shape: 64 48 8 8 (196608)
I0523 17:56:45.635392 30991 net.cpp:137] Memory required for data: 129238528
I0523 17:56:45.635397 30991 layer_factory.hpp:77] Creating layer conv3_2/2/relu
I0523 17:56:45.635401 30991 net.cpp:84] Creating Layer conv3_2/2/relu
I0523 17:56:45.635404 30991 net.cpp:406] conv3_2/2/relu <- conv3_2/2
I0523 17:56:45.635408 30991 net.cpp:367] conv3_2/2/relu -> conv3_2/2 (in-place)
I0523 17:56:45.635532 30991 net.cpp:122] Setting up conv3_2/2/relu
I0523 17:56:45.635540 30991 net.cpp:129] Top shape: 64 48 8 8 (196608)
I0523 17:56:45.635543 30991 net.cpp:137] Memory required for data: 130024960
I0523 17:56:45.635546 30991 layer_factory.hpp:77] Creating layer conv3_2/3/conv
I0523 17:56:45.635552 30991 net.cpp:84] Creating Layer conv3_2/3/conv
I0523 17:56:45.635555 30991 net.cpp:406] conv3_2/3/conv <- conv3_2/2
I0523 17:56:45.635560 30991 net.cpp:380] conv3_2/3/conv -> conv3_2/3
I0523 17:56:45.636625 30991 net.cpp:122] Setting up conv3_2/3/conv
I0523 17:56:45.636636 30991 net.cpp:129] Top shape: 64 64 8 8 (262144)
I0523 17:56:45.636641 30991 net.cpp:137] Memory required for data: 131073536
I0523 17:56:45.636644 30991 layer_factory.hpp:77] Creating layer conv3_2/3/bn
I0523 17:56:45.636649 30991 net.cpp:84] Creating Layer conv3_2/3/bn
I0523 17:56:45.636653 30991 net.cpp:406] conv3_2/3/bn <- conv3_2/3
I0523 17:56:45.636657 30991 net.cpp:367] conv3_2/3/bn -> conv3_2/3 (in-place)
I0523 17:56:45.636801 30991 net.cpp:122] Setting up conv3_2/3/bn
I0523 17:56:45.636807 30991 net.cpp:129] Top shape: 64 64 8 8 (262144)
I0523 17:56:45.636811 30991 net.cpp:137] Memory required for data: 132122112
I0523 17:56:45.636816 30991 layer_factory.hpp:77] Creating layer conv3_2/3/bn_scale
I0523 17:56:45.636822 30991 net.cpp:84] Creating Layer conv3_2/3/bn_scale
I0523 17:56:45.636826 30991 net.cpp:406] conv3_2/3/bn_scale <- conv3_2/3
I0523 17:56:45.636831 30991 net.cpp:367] conv3_2/3/bn_scale -> conv3_2/3 (in-place)
I0523 17:56:45.636858 30991 layer_factory.hpp:77] Creating layer conv3_2/3/bn_scale
I0523 17:56:45.636940 30991 net.cpp:122] Setting up conv3_2/3/bn_scale
I0523 17:56:45.636945 30991 net.cpp:129] Top shape: 64 64 8 8 (262144)
I0523 17:56:45.636948 30991 net.cpp:137] Memory required for data: 133170688
I0523 17:56:45.636953 30991 layer_factory.hpp:77] Creating layer conv3_2
I0523 17:56:45.636957 30991 net.cpp:84] Creating Layer conv3_2
I0523 17:56:45.636960 30991 net.cpp:406] conv3_2 <- conv3_2/3
I0523 17:56:45.636965 30991 net.cpp:406] conv3_2 <- conv3_1_conv3_1_0_split_1
I0523 17:56:45.636968 30991 net.cpp:380] conv3_2 -> conv3_2
I0523 17:56:45.636986 30991 net.cpp:122] Setting up conv3_2
I0523 17:56:45.636991 30991 net.cpp:129] Top shape: 64 64 8 8 (262144)
I0523 17:56:45.636994 30991 net.cpp:137] Memory required for data: 134219264
I0523 17:56:45.636997 30991 layer_factory.hpp:77] Creating layer conv3_2_conv3_2_0_split
I0523 17:56:45.637001 30991 net.cpp:84] Creating Layer conv3_2_conv3_2_0_split
I0523 17:56:45.637004 30991 net.cpp:406] conv3_2_conv3_2_0_split <- conv3_2
I0523 17:56:45.637008 30991 net.cpp:380] conv3_2_conv3_2_0_split -> conv3_2_conv3_2_0_split_0
I0523 17:56:45.637013 30991 net.cpp:380] conv3_2_conv3_2_0_split -> conv3_2_conv3_2_0_split_1
I0523 17:56:45.637038 30991 net.cpp:122] Setting up conv3_2_conv3_2_0_split
I0523 17:56:45.637044 30991 net.cpp:129] Top shape: 64 64 8 8 (262144)
I0523 17:56:45.637048 30991 net.cpp:129] Top shape: 64 64 8 8 (262144)
I0523 17:56:45.637050 30991 net.cpp:137] Memory required for data: 136316416
I0523 17:56:45.637053 30991 layer_factory.hpp:77] Creating layer conv3_3/1/conv
I0523 17:56:45.637059 30991 net.cpp:84] Creating Layer conv3_3/1/conv
I0523 17:56:45.637063 30991 net.cpp:406] conv3_3/1/conv <- conv3_2_conv3_2_0_split_0
I0523 17:56:45.637066 30991 net.cpp:380] conv3_3/1/conv -> conv3_3/1
I0523 17:56:45.637876 30991 net.cpp:122] Setting up conv3_3/1/conv
I0523 17:56:45.637887 30991 net.cpp:129] Top shape: 64 24 8 8 (98304)
I0523 17:56:45.637893 30991 net.cpp:137] Memory required for data: 136709632
I0523 17:56:45.637897 30991 layer_factory.hpp:77] Creating layer conv3_3/1/bn
I0523 17:56:45.637902 30991 net.cpp:84] Creating Layer conv3_3/1/bn
I0523 17:56:45.637905 30991 net.cpp:406] conv3_3/1/bn <- conv3_3/1
I0523 17:56:45.637912 30991 net.cpp:367] conv3_3/1/bn -> conv3_3/1 (in-place)
I0523 17:56:45.638064 30991 net.cpp:122] Setting up conv3_3/1/bn
I0523 17:56:45.638072 30991 net.cpp:129] Top shape: 64 24 8 8 (98304)
I0523 17:56:45.638074 30991 net.cpp:137] Memory required for data: 137102848
I0523 17:56:45.638079 30991 layer_factory.hpp:77] Creating layer conv3_3/1/bn_scale
I0523 17:56:45.638084 30991 net.cpp:84] Creating Layer conv3_3/1/bn_scale
I0523 17:56:45.638088 30991 net.cpp:406] conv3_3/1/bn_scale <- conv3_3/1
I0523 17:56:45.638092 30991 net.cpp:367] conv3_3/1/bn_scale -> conv3_3/1 (in-place)
I0523 17:56:45.638120 30991 layer_factory.hpp:77] Creating layer conv3_3/1/bn_scale
I0523 17:56:45.638207 30991 net.cpp:122] Setting up conv3_3/1/bn_scale
I0523 17:56:45.638213 30991 net.cpp:129] Top shape: 64 24 8 8 (98304)
I0523 17:56:45.638216 30991 net.cpp:137] Memory required for data: 137496064
I0523 17:56:45.638221 30991 layer_factory.hpp:77] Creating layer conv3_3/1/relu
I0523 17:56:45.638226 30991 net.cpp:84] Creating Layer conv3_3/1/relu
I0523 17:56:45.638229 30991 net.cpp:406] conv3_3/1/relu <- conv3_3/1
I0523 17:56:45.638233 30991 net.cpp:367] conv3_3/1/relu -> conv3_3/1 (in-place)
I0523 17:56:45.638360 30991 net.cpp:122] Setting up conv3_3/1/relu
I0523 17:56:45.638367 30991 net.cpp:129] Top shape: 64 24 8 8 (98304)
I0523 17:56:45.638370 30991 net.cpp:137] Memory required for data: 137889280
I0523 17:56:45.638373 30991 layer_factory.hpp:77] Creating layer conv3_3/2/conv
I0523 17:56:45.638381 30991 net.cpp:84] Creating Layer conv3_3/2/conv
I0523 17:56:45.638383 30991 net.cpp:406] conv3_3/2/conv <- conv3_3/1
I0523 17:56:45.638388 30991 net.cpp:380] conv3_3/2/conv -> conv3_3/2/conv
I0523 17:56:45.639209 30991 net.cpp:122] Setting up conv3_3/2/conv
I0523 17:56:45.639220 30991 net.cpp:129] Top shape: 64 24 8 8 (98304)
I0523 17:56:45.639225 30991 net.cpp:137] Memory required for data: 138282496
I0523 17:56:45.639228 30991 layer_factory.hpp:77] Creating layer conv3_3/2/bn
I0523 17:56:45.639233 30991 net.cpp:84] Creating Layer conv3_3/2/bn
I0523 17:56:45.639236 30991 net.cpp:406] conv3_3/2/bn <- conv3_3/2/conv
I0523 17:56:45.639241 30991 net.cpp:367] conv3_3/2/bn -> conv3_3/2/conv (in-place)
I0523 17:56:45.639396 30991 net.cpp:122] Setting up conv3_3/2/bn
I0523 17:56:45.639402 30991 net.cpp:129] Top shape: 64 24 8 8 (98304)
I0523 17:56:45.639406 30991 net.cpp:137] Memory required for data: 138675712
I0523 17:56:45.639411 30991 layer_factory.hpp:77] Creating layer conv3_3/2/conv_conv3_3/2/bn_0_split
I0523 17:56:45.639415 30991 net.cpp:84] Creating Layer conv3_3/2/conv_conv3_3/2/bn_0_split
I0523 17:56:45.639418 30991 net.cpp:406] conv3_3/2/conv_conv3_3/2/bn_0_split <- conv3_3/2/conv
I0523 17:56:45.639422 30991 net.cpp:380] conv3_3/2/conv_conv3_3/2/bn_0_split -> conv3_3/2/conv_conv3_3/2/bn_0_split_0
I0523 17:56:45.639437 30991 net.cpp:380] conv3_3/2/conv_conv3_3/2/bn_0_split -> conv3_3/2/conv_conv3_3/2/bn_0_split_1
I0523 17:56:45.639467 30991 net.cpp:122] Setting up conv3_3/2/conv_conv3_3/2/bn_0_split
I0523 17:56:45.639473 30991 net.cpp:129] Top shape: 64 24 8 8 (98304)
I0523 17:56:45.639477 30991 net.cpp:129] Top shape: 64 24 8 8 (98304)
I0523 17:56:45.639480 30991 net.cpp:137] Memory required for data: 139462144
I0523 17:56:45.639482 30991 layer_factory.hpp:77] Creating layer conv3_3/2/neg
I0523 17:56:45.639489 30991 net.cpp:84] Creating Layer conv3_3/2/neg
I0523 17:56:45.639492 30991 net.cpp:406] conv3_3/2/neg <- conv3_3/2/conv_conv3_3/2/bn_0_split_0
I0523 17:56:45.639497 30991 net.cpp:380] conv3_3/2/neg -> conv3_3/2/neg
I0523 17:56:45.639515 30991 net.cpp:122] Setting up conv3_3/2/neg
I0523 17:56:45.639521 30991 net.cpp:129] Top shape: 64 24 8 8 (98304)
I0523 17:56:45.639524 30991 net.cpp:137] Memory required for data: 139855360
I0523 17:56:45.639529 30991 layer_factory.hpp:77] Creating layer conv3_3/2/concat
I0523 17:56:45.639535 30991 net.cpp:84] Creating Layer conv3_3/2/concat
I0523 17:56:45.639539 30991 net.cpp:406] conv3_3/2/concat <- conv3_3/2/conv_conv3_3/2/bn_0_split_1
I0523 17:56:45.639542 30991 net.cpp:406] conv3_3/2/concat <- conv3_3/2/neg
I0523 17:56:45.639547 30991 net.cpp:380] conv3_3/2/concat -> conv3_3/2
I0523 17:56:45.639565 30991 net.cpp:122] Setting up conv3_3/2/concat
I0523 17:56:45.639570 30991 net.cpp:129] Top shape: 64 48 8 8 (196608)
I0523 17:56:45.639574 30991 net.cpp:137] Memory required for data: 140641792
I0523 17:56:45.639576 30991 layer_factory.hpp:77] Creating layer conv3_3/2/scale
I0523 17:56:45.639580 30991 net.cpp:84] Creating Layer conv3_3/2/scale
I0523 17:56:45.639585 30991 net.cpp:406] conv3_3/2/scale <- conv3_3/2
I0523 17:56:45.639590 30991 net.cpp:367] conv3_3/2/scale -> conv3_3/2 (in-place)
I0523 17:56:45.639621 30991 layer_factory.hpp:77] Creating layer conv3_3/2/scale
I0523 17:56:45.639706 30991 net.cpp:122] Setting up conv3_3/2/scale
I0523 17:56:45.639714 30991 net.cpp:129] Top shape: 64 48 8 8 (196608)
I0523 17:56:45.639716 30991 net.cpp:137] Memory required for data: 141428224
I0523 17:56:45.639721 30991 layer_factory.hpp:77] Creating layer conv3_3/2/relu
I0523 17:56:45.639725 30991 net.cpp:84] Creating Layer conv3_3/2/relu
I0523 17:56:45.639729 30991 net.cpp:406] conv3_3/2/relu <- conv3_3/2
I0523 17:56:45.639732 30991 net.cpp:367] conv3_3/2/relu -> conv3_3/2 (in-place)
I0523 17:56:45.640130 30991 net.cpp:122] Setting up conv3_3/2/relu
I0523 17:56:45.640146 30991 net.cpp:129] Top shape: 64 48 8 8 (196608)
I0523 17:56:45.640151 30991 net.cpp:137] Memory required for data: 142214656
I0523 17:56:45.640154 30991 layer_factory.hpp:77] Creating layer conv3_3/3/conv
I0523 17:56:45.640163 30991 net.cpp:84] Creating Layer conv3_3/3/conv
I0523 17:56:45.640171 30991 net.cpp:406] conv3_3/3/conv <- conv3_3/2
I0523 17:56:45.640177 30991 net.cpp:380] conv3_3/3/conv -> conv3_3/3
I0523 17:56:45.640998 30991 net.cpp:122] Setting up conv3_3/3/conv
I0523 17:56:45.641011 30991 net.cpp:129] Top shape: 64 64 8 8 (262144)
I0523 17:56:45.641016 30991 net.cpp:137] Memory required for data: 143263232
I0523 17:56:45.641021 30991 layer_factory.hpp:77] Creating layer conv3_3/3/bn
I0523 17:56:45.641024 30991 net.cpp:84] Creating Layer conv3_3/3/bn
I0523 17:56:45.641028 30991 net.cpp:406] conv3_3/3/bn <- conv3_3/3
I0523 17:56:45.641032 30991 net.cpp:367] conv3_3/3/bn -> conv3_3/3 (in-place)
I0523 17:56:45.641182 30991 net.cpp:122] Setting up conv3_3/3/bn
I0523 17:56:45.641188 30991 net.cpp:129] Top shape: 64 64 8 8 (262144)
I0523 17:56:45.641191 30991 net.cpp:137] Memory required for data: 144311808
I0523 17:56:45.641196 30991 layer_factory.hpp:77] Creating layer conv3_3/3/bn_scale
I0523 17:56:45.641201 30991 net.cpp:84] Creating Layer conv3_3/3/bn_scale
I0523 17:56:45.641204 30991 net.cpp:406] conv3_3/3/bn_scale <- conv3_3/3
I0523 17:56:45.641207 30991 net.cpp:367] conv3_3/3/bn_scale -> conv3_3/3 (in-place)
I0523 17:56:45.641237 30991 layer_factory.hpp:77] Creating layer conv3_3/3/bn_scale
I0523 17:56:45.641325 30991 net.cpp:122] Setting up conv3_3/3/bn_scale
I0523 17:56:45.641331 30991 net.cpp:129] Top shape: 64 64 8 8 (262144)
I0523 17:56:45.641335 30991 net.cpp:137] Memory required for data: 145360384
I0523 17:56:45.641338 30991 layer_factory.hpp:77] Creating layer conv3_3
I0523 17:56:45.641343 30991 net.cpp:84] Creating Layer conv3_3
I0523 17:56:45.641346 30991 net.cpp:406] conv3_3 <- conv3_3/3
I0523 17:56:45.641350 30991 net.cpp:406] conv3_3 <- conv3_2_conv3_2_0_split_1
I0523 17:56:45.641355 30991 net.cpp:380] conv3_3 -> conv3_3
I0523 17:56:45.641374 30991 net.cpp:122] Setting up conv3_3
I0523 17:56:45.641379 30991 net.cpp:129] Top shape: 64 64 8 8 (262144)
I0523 17:56:45.641382 30991 net.cpp:137] Memory required for data: 146408960
I0523 17:56:45.641386 30991 layer_factory.hpp:77] Creating layer conv3_3_conv3_3_0_split
I0523 17:56:45.641389 30991 net.cpp:84] Creating Layer conv3_3_conv3_3_0_split
I0523 17:56:45.641396 30991 net.cpp:406] conv3_3_conv3_3_0_split <- conv3_3
I0523 17:56:45.641400 30991 net.cpp:380] conv3_3_conv3_3_0_split -> conv3_3_conv3_3_0_split_0
I0523 17:56:45.641405 30991 net.cpp:380] conv3_3_conv3_3_0_split -> conv3_3_conv3_3_0_split_1
I0523 17:56:45.641433 30991 net.cpp:122] Setting up conv3_3_conv3_3_0_split
I0523 17:56:45.641438 30991 net.cpp:129] Top shape: 64 64 8 8 (262144)
I0523 17:56:45.641441 30991 net.cpp:129] Top shape: 64 64 8 8 (262144)
I0523 17:56:45.641444 30991 net.cpp:137] Memory required for data: 148506112
I0523 17:56:45.641448 30991 layer_factory.hpp:77] Creating layer conv3_4/1/conv
I0523 17:56:45.641453 30991 net.cpp:84] Creating Layer conv3_4/1/conv
I0523 17:56:45.641456 30991 net.cpp:406] conv3_4/1/conv <- conv3_3_conv3_3_0_split_0
I0523 17:56:45.641460 30991 net.cpp:380] conv3_4/1/conv -> conv3_4/1
I0523 17:56:45.641995 30991 net.cpp:122] Setting up conv3_4/1/conv
I0523 17:56:45.642004 30991 net.cpp:129] Top shape: 64 24 8 8 (98304)
I0523 17:56:45.642009 30991 net.cpp:137] Memory required for data: 148899328
I0523 17:56:45.642024 30991 layer_factory.hpp:77] Creating layer conv3_4/1/bn
I0523 17:56:45.642030 30991 net.cpp:84] Creating Layer conv3_4/1/bn
I0523 17:56:45.642035 30991 net.cpp:406] conv3_4/1/bn <- conv3_4/1
I0523 17:56:45.642038 30991 net.cpp:367] conv3_4/1/bn -> conv3_4/1 (in-place)
I0523 17:56:45.642189 30991 net.cpp:122] Setting up conv3_4/1/bn
I0523 17:56:45.642195 30991 net.cpp:129] Top shape: 64 24 8 8 (98304)
I0523 17:56:45.642199 30991 net.cpp:137] Memory required for data: 149292544
I0523 17:56:45.642204 30991 layer_factory.hpp:77] Creating layer conv3_4/1/bn_scale
I0523 17:56:45.642210 30991 net.cpp:84] Creating Layer conv3_4/1/bn_scale
I0523 17:56:45.642212 30991 net.cpp:406] conv3_4/1/bn_scale <- conv3_4/1
I0523 17:56:45.642216 30991 net.cpp:367] conv3_4/1/bn_scale -> conv3_4/1 (in-place)
I0523 17:56:45.642246 30991 layer_factory.hpp:77] Creating layer conv3_4/1/bn_scale
I0523 17:56:45.642335 30991 net.cpp:122] Setting up conv3_4/1/bn_scale
I0523 17:56:45.642343 30991 net.cpp:129] Top shape: 64 24 8 8 (98304)
I0523 17:56:45.642345 30991 net.cpp:137] Memory required for data: 149685760
I0523 17:56:45.642349 30991 layer_factory.hpp:77] Creating layer conv3_4/1/relu
I0523 17:56:45.642354 30991 net.cpp:84] Creating Layer conv3_4/1/relu
I0523 17:56:45.642356 30991 net.cpp:406] conv3_4/1/relu <- conv3_4/1
I0523 17:56:45.642361 30991 net.cpp:367] conv3_4/1/relu -> conv3_4/1 (in-place)
I0523 17:56:45.642756 30991 net.cpp:122] Setting up conv3_4/1/relu
I0523 17:56:45.642768 30991 net.cpp:129] Top shape: 64 24 8 8 (98304)
I0523 17:56:45.642773 30991 net.cpp:137] Memory required for data: 150078976
I0523 17:56:45.642778 30991 layer_factory.hpp:77] Creating layer conv3_4/2/conv
I0523 17:56:45.642786 30991 net.cpp:84] Creating Layer conv3_4/2/conv
I0523 17:56:45.642791 30991 net.cpp:406] conv3_4/2/conv <- conv3_4/1
I0523 17:56:45.642798 30991 net.cpp:380] conv3_4/2/conv -> conv3_4/2/conv
I0523 17:56:45.643976 30991 net.cpp:122] Setting up conv3_4/2/conv
I0523 17:56:45.643993 30991 net.cpp:129] Top shape: 64 24 8 8 (98304)
I0523 17:56:45.643996 30991 net.cpp:137] Memory required for data: 150472192
I0523 17:56:45.644002 30991 layer_factory.hpp:77] Creating layer conv3_4/2/bn
I0523 17:56:45.644008 30991 net.cpp:84] Creating Layer conv3_4/2/bn
I0523 17:56:45.644012 30991 net.cpp:406] conv3_4/2/bn <- conv3_4/2/conv
I0523 17:56:45.644017 30991 net.cpp:367] conv3_4/2/bn -> conv3_4/2/conv (in-place)
I0523 17:56:45.644193 30991 net.cpp:122] Setting up conv3_4/2/bn
I0523 17:56:45.644202 30991 net.cpp:129] Top shape: 64 24 8 8 (98304)
I0523 17:56:45.644206 30991 net.cpp:137] Memory required for data: 150865408
I0523 17:56:45.644212 30991 layer_factory.hpp:77] Creating layer conv3_4/2/conv_conv3_4/2/bn_0_split
I0523 17:56:45.644215 30991 net.cpp:84] Creating Layer conv3_4/2/conv_conv3_4/2/bn_0_split
I0523 17:56:45.644218 30991 net.cpp:406] conv3_4/2/conv_conv3_4/2/bn_0_split <- conv3_4/2/conv
I0523 17:56:45.644223 30991 net.cpp:380] conv3_4/2/conv_conv3_4/2/bn_0_split -> conv3_4/2/conv_conv3_4/2/bn_0_split_0
I0523 17:56:45.644233 30991 net.cpp:380] conv3_4/2/conv_conv3_4/2/bn_0_split -> conv3_4/2/conv_conv3_4/2/bn_0_split_1
I0523 17:56:45.644261 30991 net.cpp:122] Setting up conv3_4/2/conv_conv3_4/2/bn_0_split
I0523 17:56:45.644268 30991 net.cpp:129] Top shape: 64 24 8 8 (98304)
I0523 17:56:45.644273 30991 net.cpp:129] Top shape: 64 24 8 8 (98304)
I0523 17:56:45.644275 30991 net.cpp:137] Memory required for data: 151651840
I0523 17:56:45.644278 30991 layer_factory.hpp:77] Creating layer conv3_4/2/neg
I0523 17:56:45.644282 30991 net.cpp:84] Creating Layer conv3_4/2/neg
I0523 17:56:45.644285 30991 net.cpp:406] conv3_4/2/neg <- conv3_4/2/conv_conv3_4/2/bn_0_split_0
I0523 17:56:45.644289 30991 net.cpp:380] conv3_4/2/neg -> conv3_4/2/neg
I0523 17:56:45.644306 30991 net.cpp:122] Setting up conv3_4/2/neg
I0523 17:56:45.644312 30991 net.cpp:129] Top shape: 64 24 8 8 (98304)
I0523 17:56:45.644315 30991 net.cpp:137] Memory required for data: 152045056
I0523 17:56:45.644318 30991 layer_factory.hpp:77] Creating layer conv3_4/2/concat
I0523 17:56:45.644323 30991 net.cpp:84] Creating Layer conv3_4/2/concat
I0523 17:56:45.644326 30991 net.cpp:406] conv3_4/2/concat <- conv3_4/2/conv_conv3_4/2/bn_0_split_1
I0523 17:56:45.644330 30991 net.cpp:406] conv3_4/2/concat <- conv3_4/2/neg
I0523 17:56:45.644335 30991 net.cpp:380] conv3_4/2/concat -> conv3_4/2
I0523 17:56:45.644352 30991 net.cpp:122] Setting up conv3_4/2/concat
I0523 17:56:45.644357 30991 net.cpp:129] Top shape: 64 48 8 8 (196608)
I0523 17:56:45.644361 30991 net.cpp:137] Memory required for data: 152831488
I0523 17:56:45.644363 30991 layer_factory.hpp:77] Creating layer conv3_4/2/scale
I0523 17:56:45.644367 30991 net.cpp:84] Creating Layer conv3_4/2/scale
I0523 17:56:45.644371 30991 net.cpp:406] conv3_4/2/scale <- conv3_4/2
I0523 17:56:45.644376 30991 net.cpp:367] conv3_4/2/scale -> conv3_4/2 (in-place)
I0523 17:56:45.644408 30991 layer_factory.hpp:77] Creating layer conv3_4/2/scale
I0523 17:56:45.644497 30991 net.cpp:122] Setting up conv3_4/2/scale
I0523 17:56:45.644503 30991 net.cpp:129] Top shape: 64 48 8 8 (196608)
I0523 17:56:45.644506 30991 net.cpp:137] Memory required for data: 153617920
I0523 17:56:45.644511 30991 layer_factory.hpp:77] Creating layer conv3_4/2/relu
I0523 17:56:45.644515 30991 net.cpp:84] Creating Layer conv3_4/2/relu
I0523 17:56:45.644518 30991 net.cpp:406] conv3_4/2/relu <- conv3_4/2
I0523 17:56:45.644521 30991 net.cpp:367] conv3_4/2/relu -> conv3_4/2 (in-place)
I0523 17:56:45.644651 30991 net.cpp:122] Setting up conv3_4/2/relu
I0523 17:56:45.644659 30991 net.cpp:129] Top shape: 64 48 8 8 (196608)
I0523 17:56:45.644662 30991 net.cpp:137] Memory required for data: 154404352
I0523 17:56:45.644665 30991 layer_factory.hpp:77] Creating layer conv3_4/3/conv
I0523 17:56:45.644671 30991 net.cpp:84] Creating Layer conv3_4/3/conv
I0523 17:56:45.644675 30991 net.cpp:406] conv3_4/3/conv <- conv3_4/2
I0523 17:56:45.644680 30991 net.cpp:380] conv3_4/3/conv -> conv3_4/3
I0523 17:56:45.645527 30991 net.cpp:122] Setting up conv3_4/3/conv
I0523 17:56:45.645540 30991 net.cpp:129] Top shape: 64 64 8 8 (262144)
I0523 17:56:45.645545 30991 net.cpp:137] Memory required for data: 155452928
I0523 17:56:45.645548 30991 layer_factory.hpp:77] Creating layer conv3_4/3/bn
I0523 17:56:45.645553 30991 net.cpp:84] Creating Layer conv3_4/3/bn
I0523 17:56:45.645557 30991 net.cpp:406] conv3_4/3/bn <- conv3_4/3
I0523 17:56:45.645562 30991 net.cpp:367] conv3_4/3/bn -> conv3_4/3 (in-place)
I0523 17:56:45.645717 30991 net.cpp:122] Setting up conv3_4/3/bn
I0523 17:56:45.645723 30991 net.cpp:129] Top shape: 64 64 8 8 (262144)
I0523 17:56:45.645726 30991 net.cpp:137] Memory required for data: 156501504
I0523 17:56:45.645731 30991 layer_factory.hpp:77] Creating layer conv3_4/3/bn_scale
I0523 17:56:45.645736 30991 net.cpp:84] Creating Layer conv3_4/3/bn_scale
I0523 17:56:45.645740 30991 net.cpp:406] conv3_4/3/bn_scale <- conv3_4/3
I0523 17:56:45.645745 30991 net.cpp:367] conv3_4/3/bn_scale -> conv3_4/3 (in-place)
I0523 17:56:45.645773 30991 layer_factory.hpp:77] Creating layer conv3_4/3/bn_scale
I0523 17:56:45.645864 30991 net.cpp:122] Setting up conv3_4/3/bn_scale
I0523 17:56:45.645871 30991 net.cpp:129] Top shape: 64 64 8 8 (262144)
I0523 17:56:45.645874 30991 net.cpp:137] Memory required for data: 157550080
I0523 17:56:45.645879 30991 layer_factory.hpp:77] Creating layer conv3_4
I0523 17:56:45.645884 30991 net.cpp:84] Creating Layer conv3_4
I0523 17:56:45.645887 30991 net.cpp:406] conv3_4 <- conv3_4/3
I0523 17:56:45.645891 30991 net.cpp:406] conv3_4 <- conv3_3_conv3_3_0_split_1
I0523 17:56:45.645895 30991 net.cpp:380] conv3_4 -> conv3_4
I0523 17:56:45.645915 30991 net.cpp:122] Setting up conv3_4
I0523 17:56:45.645920 30991 net.cpp:129] Top shape: 64 64 8 8 (262144)
I0523 17:56:45.645923 30991 net.cpp:137] Memory required for data: 158598656
I0523 17:56:45.645925 30991 layer_factory.hpp:77] Creating layer conv3_4_conv3_4_0_split
I0523 17:56:45.645931 30991 net.cpp:84] Creating Layer conv3_4_conv3_4_0_split
I0523 17:56:45.645936 30991 net.cpp:406] conv3_4_conv3_4_0_split <- conv3_4
I0523 17:56:45.645939 30991 net.cpp:380] conv3_4_conv3_4_0_split -> conv3_4_conv3_4_0_split_0
I0523 17:56:45.645946 30991 net.cpp:380] conv3_4_conv3_4_0_split -> conv3_4_conv3_4_0_split_1
I0523 17:56:45.645951 30991 net.cpp:380] conv3_4_conv3_4_0_split -> conv3_4_conv3_4_0_split_2
I0523 17:56:45.645956 30991 net.cpp:380] conv3_4_conv3_4_0_split -> conv3_4_conv3_4_0_split_3
I0523 17:56:45.645961 30991 net.cpp:380] conv3_4_conv3_4_0_split -> conv3_4_conv3_4_0_split_4
I0523 17:56:45.646011 30991 net.cpp:122] Setting up conv3_4_conv3_4_0_split
I0523 17:56:45.646018 30991 net.cpp:129] Top shape: 64 64 8 8 (262144)
I0523 17:56:45.646021 30991 net.cpp:129] Top shape: 64 64 8 8 (262144)
I0523 17:56:45.646025 30991 net.cpp:129] Top shape: 64 64 8 8 (262144)
I0523 17:56:45.646028 30991 net.cpp:129] Top shape: 64 64 8 8 (262144)
I0523 17:56:45.646033 30991 net.cpp:129] Top shape: 64 64 8 8 (262144)
I0523 17:56:45.646034 30991 net.cpp:137] Memory required for data: 163841536
I0523 17:56:45.646037 30991 layer_factory.hpp:77] Creating layer conv4_1/incep/0/conv
I0523 17:56:45.646054 30991 net.cpp:84] Creating Layer conv4_1/incep/0/conv
I0523 17:56:45.646059 30991 net.cpp:406] conv4_1/incep/0/conv <- conv3_4_conv3_4_0_split_0
I0523 17:56:45.646064 30991 net.cpp:380] conv4_1/incep/0/conv -> conv4_1/incep/0
I0523 17:56:45.646884 30991 net.cpp:122] Setting up conv4_1/incep/0/conv
I0523 17:56:45.646895 30991 net.cpp:129] Top shape: 64 32 4 4 (32768)
I0523 17:56:45.646899 30991 net.cpp:137] Memory required for data: 163972608
I0523 17:56:45.646903 30991 layer_factory.hpp:77] Creating layer conv4_1/incep/0/bn
I0523 17:56:45.646909 30991 net.cpp:84] Creating Layer conv4_1/incep/0/bn
I0523 17:56:45.646914 30991 net.cpp:406] conv4_1/incep/0/bn <- conv4_1/incep/0
I0523 17:56:45.646917 30991 net.cpp:367] conv4_1/incep/0/bn -> conv4_1/incep/0 (in-place)
I0523 17:56:45.647076 30991 net.cpp:122] Setting up conv4_1/incep/0/bn
I0523 17:56:45.647083 30991 net.cpp:129] Top shape: 64 32 4 4 (32768)
I0523 17:56:45.647085 30991 net.cpp:137] Memory required for data: 164103680
I0523 17:56:45.647090 30991 layer_factory.hpp:77] Creating layer conv4_1/incep/0/bn_scale
I0523 17:56:45.647095 30991 net.cpp:84] Creating Layer conv4_1/incep/0/bn_scale
I0523 17:56:45.647099 30991 net.cpp:406] conv4_1/incep/0/bn_scale <- conv4_1/incep/0
I0523 17:56:45.647104 30991 net.cpp:367] conv4_1/incep/0/bn_scale -> conv4_1/incep/0 (in-place)
I0523 17:56:45.647133 30991 layer_factory.hpp:77] Creating layer conv4_1/incep/0/bn_scale
I0523 17:56:45.647222 30991 net.cpp:122] Setting up conv4_1/incep/0/bn_scale
I0523 17:56:45.647228 30991 net.cpp:129] Top shape: 64 32 4 4 (32768)
I0523 17:56:45.647230 30991 net.cpp:137] Memory required for data: 164234752
I0523 17:56:45.647235 30991 layer_factory.hpp:77] Creating layer conv4_1/incep/0/relu
I0523 17:56:45.647239 30991 net.cpp:84] Creating Layer conv4_1/incep/0/relu
I0523 17:56:45.647243 30991 net.cpp:406] conv4_1/incep/0/relu <- conv4_1/incep/0
I0523 17:56:45.647248 30991 net.cpp:367] conv4_1/incep/0/relu -> conv4_1/incep/0 (in-place)
I0523 17:56:45.647383 30991 net.cpp:122] Setting up conv4_1/incep/0/relu
I0523 17:56:45.647392 30991 net.cpp:129] Top shape: 64 32 4 4 (32768)
I0523 17:56:45.647394 30991 net.cpp:137] Memory required for data: 164365824
I0523 17:56:45.647397 30991 layer_factory.hpp:77] Creating layer conv4_1/incep/1_reduce/conv
I0523 17:56:45.647404 30991 net.cpp:84] Creating Layer conv4_1/incep/1_reduce/conv
I0523 17:56:45.647408 30991 net.cpp:406] conv4_1/incep/1_reduce/conv <- conv3_4_conv3_4_0_split_1
I0523 17:56:45.647413 30991 net.cpp:380] conv4_1/incep/1_reduce/conv -> conv4_1/incep/1_reduce
I0523 17:56:45.648221 30991 net.cpp:122] Setting up conv4_1/incep/1_reduce/conv
I0523 17:56:45.648234 30991 net.cpp:129] Top shape: 64 24 4 4 (24576)
I0523 17:56:45.648237 30991 net.cpp:137] Memory required for data: 164464128
I0523 17:56:45.648242 30991 layer_factory.hpp:77] Creating layer conv4_1/incep/1_reduce/bn
I0523 17:56:45.648247 30991 net.cpp:84] Creating Layer conv4_1/incep/1_reduce/bn
I0523 17:56:45.648250 30991 net.cpp:406] conv4_1/incep/1_reduce/bn <- conv4_1/incep/1_reduce
I0523 17:56:45.648255 30991 net.cpp:367] conv4_1/incep/1_reduce/bn -> conv4_1/incep/1_reduce (in-place)
I0523 17:56:45.648413 30991 net.cpp:122] Setting up conv4_1/incep/1_reduce/bn
I0523 17:56:45.648421 30991 net.cpp:129] Top shape: 64 24 4 4 (24576)
I0523 17:56:45.648423 30991 net.cpp:137] Memory required for data: 164562432
I0523 17:56:45.648428 30991 layer_factory.hpp:77] Creating layer conv4_1/incep/1_reduce/bn_scale
I0523 17:56:45.648432 30991 net.cpp:84] Creating Layer conv4_1/incep/1_reduce/bn_scale
I0523 17:56:45.648437 30991 net.cpp:406] conv4_1/incep/1_reduce/bn_scale <- conv4_1/incep/1_reduce
I0523 17:56:45.648439 30991 net.cpp:367] conv4_1/incep/1_reduce/bn_scale -> conv4_1/incep/1_reduce (in-place)
I0523 17:56:45.648470 30991 layer_factory.hpp:77] Creating layer conv4_1/incep/1_reduce/bn_scale
I0523 17:56:45.648561 30991 net.cpp:122] Setting up conv4_1/incep/1_reduce/bn_scale
I0523 17:56:45.648567 30991 net.cpp:129] Top shape: 64 24 4 4 (24576)
I0523 17:56:45.648571 30991 net.cpp:137] Memory required for data: 164660736
I0523 17:56:45.648574 30991 layer_factory.hpp:77] Creating layer conv4_1/incep/1_reduce/relu
I0523 17:56:45.648579 30991 net.cpp:84] Creating Layer conv4_1/incep/1_reduce/relu
I0523 17:56:45.648582 30991 net.cpp:406] conv4_1/incep/1_reduce/relu <- conv4_1/incep/1_reduce
I0523 17:56:45.648586 30991 net.cpp:367] conv4_1/incep/1_reduce/relu -> conv4_1/incep/1_reduce (in-place)
I0523 17:56:45.648717 30991 net.cpp:122] Setting up conv4_1/incep/1_reduce/relu
I0523 17:56:45.648725 30991 net.cpp:129] Top shape: 64 24 4 4 (24576)
I0523 17:56:45.648727 30991 net.cpp:137] Memory required for data: 164759040
I0523 17:56:45.648730 30991 layer_factory.hpp:77] Creating layer conv4_1/incep/1_0/conv
I0523 17:56:45.648737 30991 net.cpp:84] Creating Layer conv4_1/incep/1_0/conv
I0523 17:56:45.648741 30991 net.cpp:406] conv4_1/incep/1_0/conv <- conv4_1/incep/1_reduce
I0523 17:56:45.648746 30991 net.cpp:380] conv4_1/incep/1_0/conv -> conv4_1/incep/1_0
I0523 17:56:45.649868 30991 net.cpp:122] Setting up conv4_1/incep/1_0/conv
I0523 17:56:45.649879 30991 net.cpp:129] Top shape: 64 64 4 4 (65536)
I0523 17:56:45.649883 30991 net.cpp:137] Memory required for data: 165021184
I0523 17:56:45.649888 30991 layer_factory.hpp:77] Creating layer conv4_1/incep/1_0/bn
I0523 17:56:45.649894 30991 net.cpp:84] Creating Layer conv4_1/incep/1_0/bn
I0523 17:56:45.649897 30991 net.cpp:406] conv4_1/incep/1_0/bn <- conv4_1/incep/1_0
I0523 17:56:45.649904 30991 net.cpp:367] conv4_1/incep/1_0/bn -> conv4_1/incep/1_0 (in-place)
I0523 17:56:45.650068 30991 net.cpp:122] Setting up conv4_1/incep/1_0/bn
I0523 17:56:45.650074 30991 net.cpp:129] Top shape: 64 64 4 4 (65536)
I0523 17:56:45.650077 30991 net.cpp:137] Memory required for data: 165283328
I0523 17:56:45.650084 30991 layer_factory.hpp:77] Creating layer conv4_1/incep/1_0/bn_scale
I0523 17:56:45.650089 30991 net.cpp:84] Creating Layer conv4_1/incep/1_0/bn_scale
I0523 17:56:45.650092 30991 net.cpp:406] conv4_1/incep/1_0/bn_scale <- conv4_1/incep/1_0
I0523 17:56:45.650101 30991 net.cpp:367] conv4_1/incep/1_0/bn_scale -> conv4_1/incep/1_0 (in-place)
I0523 17:56:45.650133 30991 layer_factory.hpp:77] Creating layer conv4_1/incep/1_0/bn_scale
I0523 17:56:45.650228 30991 net.cpp:122] Setting up conv4_1/incep/1_0/bn_scale
I0523 17:56:45.650233 30991 net.cpp:129] Top shape: 64 64 4 4 (65536)
I0523 17:56:45.650236 30991 net.cpp:137] Memory required for data: 165545472
I0523 17:56:45.650241 30991 layer_factory.hpp:77] Creating layer conv4_1/incep/1_0/relu
I0523 17:56:45.650246 30991 net.cpp:84] Creating Layer conv4_1/incep/1_0/relu
I0523 17:56:45.650249 30991 net.cpp:406] conv4_1/incep/1_0/relu <- conv4_1/incep/1_0
I0523 17:56:45.650254 30991 net.cpp:367] conv4_1/incep/1_0/relu -> conv4_1/incep/1_0 (in-place)
I0523 17:56:45.650389 30991 net.cpp:122] Setting up conv4_1/incep/1_0/relu
I0523 17:56:45.650398 30991 net.cpp:129] Top shape: 64 64 4 4 (65536)
I0523 17:56:45.650401 30991 net.cpp:137] Memory required for data: 165807616
I0523 17:56:45.650404 30991 layer_factory.hpp:77] Creating layer conv4_1/incep/2_reduce/conv
I0523 17:56:45.650410 30991 net.cpp:84] Creating Layer conv4_1/incep/2_reduce/conv
I0523 17:56:45.650413 30991 net.cpp:406] conv4_1/incep/2_reduce/conv <- conv3_4_conv3_4_0_split_2
I0523 17:56:45.650419 30991 net.cpp:380] conv4_1/incep/2_reduce/conv -> conv4_1/incep/2_reduce
I0523 17:56:45.651299 30991 net.cpp:122] Setting up conv4_1/incep/2_reduce/conv
I0523 17:56:45.651311 30991 net.cpp:129] Top shape: 64 12 4 4 (12288)
I0523 17:56:45.651314 30991 net.cpp:137] Memory required for data: 165856768
I0523 17:56:45.651319 30991 layer_factory.hpp:77] Creating layer conv4_1/incep/2_reduce/bn
I0523 17:56:45.651324 30991 net.cpp:84] Creating Layer conv4_1/incep/2_reduce/bn
I0523 17:56:45.651329 30991 net.cpp:406] conv4_1/incep/2_reduce/bn <- conv4_1/incep/2_reduce
I0523 17:56:45.651332 30991 net.cpp:367] conv4_1/incep/2_reduce/bn -> conv4_1/incep/2_reduce (in-place)
I0523 17:56:45.651489 30991 net.cpp:122] Setting up conv4_1/incep/2_reduce/bn
I0523 17:56:45.651495 30991 net.cpp:129] Top shape: 64 12 4 4 (12288)
I0523 17:56:45.651499 30991 net.cpp:137] Memory required for data: 165905920
I0523 17:56:45.651504 30991 layer_factory.hpp:77] Creating layer conv4_1/incep/2_reduce/bn_scale
I0523 17:56:45.651509 30991 net.cpp:84] Creating Layer conv4_1/incep/2_reduce/bn_scale
I0523 17:56:45.651511 30991 net.cpp:406] conv4_1/incep/2_reduce/bn_scale <- conv4_1/incep/2_reduce
I0523 17:56:45.651516 30991 net.cpp:367] conv4_1/incep/2_reduce/bn_scale -> conv4_1/incep/2_reduce (in-place)
I0523 17:56:45.651547 30991 layer_factory.hpp:77] Creating layer conv4_1/incep/2_reduce/bn_scale
I0523 17:56:45.651639 30991 net.cpp:122] Setting up conv4_1/incep/2_reduce/bn_scale
I0523 17:56:45.651646 30991 net.cpp:129] Top shape: 64 12 4 4 (12288)
I0523 17:56:45.651649 30991 net.cpp:137] Memory required for data: 165955072
I0523 17:56:45.651654 30991 layer_factory.hpp:77] Creating layer conv4_1/incep/2_reduce/relu
I0523 17:56:45.651659 30991 net.cpp:84] Creating Layer conv4_1/incep/2_reduce/relu
I0523 17:56:45.651661 30991 net.cpp:406] conv4_1/incep/2_reduce/relu <- conv4_1/incep/2_reduce
I0523 17:56:45.651666 30991 net.cpp:367] conv4_1/incep/2_reduce/relu -> conv4_1/incep/2_reduce (in-place)
I0523 17:56:45.651803 30991 net.cpp:122] Setting up conv4_1/incep/2_reduce/relu
I0523 17:56:45.651813 30991 net.cpp:129] Top shape: 64 12 4 4 (12288)
I0523 17:56:45.651815 30991 net.cpp:137] Memory required for data: 166004224
I0523 17:56:45.651818 30991 layer_factory.hpp:77] Creating layer conv4_1/incep/2_0/conv
I0523 17:56:45.651824 30991 net.cpp:84] Creating Layer conv4_1/incep/2_0/conv
I0523 17:56:45.651828 30991 net.cpp:406] conv4_1/incep/2_0/conv <- conv4_1/incep/2_reduce
I0523 17:56:45.651832 30991 net.cpp:380] conv4_1/incep/2_0/conv -> conv4_1/incep/2_0
I0523 17:56:45.652704 30991 net.cpp:122] Setting up conv4_1/incep/2_0/conv
I0523 17:56:45.652715 30991 net.cpp:129] Top shape: 64 24 4 4 (24576)
I0523 17:56:45.652719 30991 net.cpp:137] Memory required for data: 166102528
I0523 17:56:45.652726 30991 layer_factory.hpp:77] Creating layer conv4_1/incep/2_0/bn
I0523 17:56:45.652732 30991 net.cpp:84] Creating Layer conv4_1/incep/2_0/bn
I0523 17:56:45.652735 30991 net.cpp:406] conv4_1/incep/2_0/bn <- conv4_1/incep/2_0
I0523 17:56:45.652741 30991 net.cpp:367] conv4_1/incep/2_0/bn -> conv4_1/incep/2_0 (in-place)
I0523 17:56:45.652897 30991 net.cpp:122] Setting up conv4_1/incep/2_0/bn
I0523 17:56:45.652904 30991 net.cpp:129] Top shape: 64 24 4 4 (24576)
I0523 17:56:45.652907 30991 net.cpp:137] Memory required for data: 166200832
I0523 17:56:45.652912 30991 layer_factory.hpp:77] Creating layer conv4_1/incep/2_0/bn_scale
I0523 17:56:45.652917 30991 net.cpp:84] Creating Layer conv4_1/incep/2_0/bn_scale
I0523 17:56:45.652921 30991 net.cpp:406] conv4_1/incep/2_0/bn_scale <- conv4_1/incep/2_0
I0523 17:56:45.652925 30991 net.cpp:367] conv4_1/incep/2_0/bn_scale -> conv4_1/incep/2_0 (in-place)
I0523 17:56:45.652956 30991 layer_factory.hpp:77] Creating layer conv4_1/incep/2_0/bn_scale
I0523 17:56:45.653044 30991 net.cpp:122] Setting up conv4_1/incep/2_0/bn_scale
I0523 17:56:45.653050 30991 net.cpp:129] Top shape: 64 24 4 4 (24576)
I0523 17:56:45.653053 30991 net.cpp:137] Memory required for data: 166299136
I0523 17:56:45.653057 30991 layer_factory.hpp:77] Creating layer conv4_1/incep/2_0/relu
I0523 17:56:45.653062 30991 net.cpp:84] Creating Layer conv4_1/incep/2_0/relu
I0523 17:56:45.653065 30991 net.cpp:406] conv4_1/incep/2_0/relu <- conv4_1/incep/2_0
I0523 17:56:45.653070 30991 net.cpp:367] conv4_1/incep/2_0/relu -> conv4_1/incep/2_0 (in-place)
I0523 17:56:45.653463 30991 net.cpp:122] Setting up conv4_1/incep/2_0/relu
I0523 17:56:45.653473 30991 net.cpp:129] Top shape: 64 24 4 4 (24576)
I0523 17:56:45.653477 30991 net.cpp:137] Memory required for data: 166397440
I0523 17:56:45.653481 30991 layer_factory.hpp:77] Creating layer conv4_1/incep/2_1/conv
I0523 17:56:45.653489 30991 net.cpp:84] Creating Layer conv4_1/incep/2_1/conv
I0523 17:56:45.653493 30991 net.cpp:406] conv4_1/incep/2_1/conv <- conv4_1/incep/2_0
I0523 17:56:45.653499 30991 net.cpp:380] conv4_1/incep/2_1/conv -> conv4_1/incep/2_1
I0523 17:56:45.654068 30991 net.cpp:122] Setting up conv4_1/incep/2_1/conv
I0523 17:56:45.654078 30991 net.cpp:129] Top shape: 64 24 4 4 (24576)
I0523 17:56:45.654081 30991 net.cpp:137] Memory required for data: 166495744
I0523 17:56:45.654085 30991 layer_factory.hpp:77] Creating layer conv4_1/incep/2_1/bn
I0523 17:56:45.654090 30991 net.cpp:84] Creating Layer conv4_1/incep/2_1/bn
I0523 17:56:45.654093 30991 net.cpp:406] conv4_1/incep/2_1/bn <- conv4_1/incep/2_1
I0523 17:56:45.654098 30991 net.cpp:367] conv4_1/incep/2_1/bn -> conv4_1/incep/2_1 (in-place)
I0523 17:56:45.654256 30991 net.cpp:122] Setting up conv4_1/incep/2_1/bn
I0523 17:56:45.654264 30991 net.cpp:129] Top shape: 64 24 4 4 (24576)
I0523 17:56:45.654268 30991 net.cpp:137] Memory required for data: 166594048
I0523 17:56:45.654275 30991 layer_factory.hpp:77] Creating layer conv4_1/incep/2_1/bn_scale
I0523 17:56:45.654284 30991 net.cpp:84] Creating Layer conv4_1/incep/2_1/bn_scale
I0523 17:56:45.654289 30991 net.cpp:406] conv4_1/incep/2_1/bn_scale <- conv4_1/incep/2_1
I0523 17:56:45.654294 30991 net.cpp:367] conv4_1/incep/2_1/bn_scale -> conv4_1/incep/2_1 (in-place)
I0523 17:56:45.654338 30991 layer_factory.hpp:77] Creating layer conv4_1/incep/2_1/bn_scale
I0523 17:56:45.654436 30991 net.cpp:122] Setting up conv4_1/incep/2_1/bn_scale
I0523 17:56:45.654444 30991 net.cpp:129] Top shape: 64 24 4 4 (24576)
I0523 17:56:45.654448 30991 net.cpp:137] Memory required for data: 166692352
I0523 17:56:45.654451 30991 layer_factory.hpp:77] Creating layer conv4_1/incep/2_1/relu
I0523 17:56:45.654456 30991 net.cpp:84] Creating Layer conv4_1/incep/2_1/relu
I0523 17:56:45.654459 30991 net.cpp:406] conv4_1/incep/2_1/relu <- conv4_1/incep/2_1
I0523 17:56:45.654464 30991 net.cpp:367] conv4_1/incep/2_1/relu -> conv4_1/incep/2_1 (in-place)
I0523 17:56:45.654950 30991 net.cpp:122] Setting up conv4_1/incep/2_1/relu
I0523 17:56:45.654961 30991 net.cpp:129] Top shape: 64 24 4 4 (24576)
I0523 17:56:45.654968 30991 net.cpp:137] Memory required for data: 166790656
I0523 17:56:45.654973 30991 layer_factory.hpp:77] Creating layer conv4_1/incep/pool
I0523 17:56:45.654978 30991 net.cpp:84] Creating Layer conv4_1/incep/pool
I0523 17:56:45.654983 30991 net.cpp:406] conv4_1/incep/pool <- conv3_4_conv3_4_0_split_3
I0523 17:56:45.654988 30991 net.cpp:380] conv4_1/incep/pool -> conv4_1/incep/pool
I0523 17:56:45.655025 30991 net.cpp:122] Setting up conv4_1/incep/pool
I0523 17:56:45.655030 30991 net.cpp:129] Top shape: 64 64 4 4 (65536)
I0523 17:56:45.655033 30991 net.cpp:137] Memory required for data: 167052800
I0523 17:56:45.655036 30991 layer_factory.hpp:77] Creating layer conv4_1/incep/poolproj/conv
I0523 17:56:45.655042 30991 net.cpp:84] Creating Layer conv4_1/incep/poolproj/conv
I0523 17:56:45.655046 30991 net.cpp:406] conv4_1/incep/poolproj/conv <- conv4_1/incep/pool
I0523 17:56:45.655051 30991 net.cpp:380] conv4_1/incep/poolproj/conv -> conv4_1/incep/poolproj
I0523 17:56:45.655896 30991 net.cpp:122] Setting up conv4_1/incep/poolproj/conv
I0523 17:56:45.655910 30991 net.cpp:129] Top shape: 64 64 4 4 (65536)
I0523 17:56:45.655912 30991 net.cpp:137] Memory required for data: 167314944
I0523 17:56:45.655917 30991 layer_factory.hpp:77] Creating layer conv4_1/incep/poolproj/bn
I0523 17:56:45.655922 30991 net.cpp:84] Creating Layer conv4_1/incep/poolproj/bn
I0523 17:56:45.655925 30991 net.cpp:406] conv4_1/incep/poolproj/bn <- conv4_1/incep/poolproj
I0523 17:56:45.655930 30991 net.cpp:367] conv4_1/incep/poolproj/bn -> conv4_1/incep/poolproj (in-place)
I0523 17:56:45.656100 30991 net.cpp:122] Setting up conv4_1/incep/poolproj/bn
I0523 17:56:45.656106 30991 net.cpp:129] Top shape: 64 64 4 4 (65536)
I0523 17:56:45.656110 30991 net.cpp:137] Memory required for data: 167577088
I0523 17:56:45.656116 30991 layer_factory.hpp:77] Creating layer conv4_1/incep/poolproj/bn_scale
I0523 17:56:45.656121 30991 net.cpp:84] Creating Layer conv4_1/incep/poolproj/bn_scale
I0523 17:56:45.656124 30991 net.cpp:406] conv4_1/incep/poolproj/bn_scale <- conv4_1/incep/poolproj
I0523 17:56:45.656128 30991 net.cpp:367] conv4_1/incep/poolproj/bn_scale -> conv4_1/incep/poolproj (in-place)
I0523 17:56:45.656160 30991 layer_factory.hpp:77] Creating layer conv4_1/incep/poolproj/bn_scale
I0523 17:56:45.656255 30991 net.cpp:122] Setting up conv4_1/incep/poolproj/bn_scale
I0523 17:56:45.656261 30991 net.cpp:129] Top shape: 64 64 4 4 (65536)
I0523 17:56:45.656265 30991 net.cpp:137] Memory required for data: 167839232
I0523 17:56:45.656268 30991 layer_factory.hpp:77] Creating layer conv4_1/incep/poolproj/relu
I0523 17:56:45.656273 30991 net.cpp:84] Creating Layer conv4_1/incep/poolproj/relu
I0523 17:56:45.656277 30991 net.cpp:406] conv4_1/incep/poolproj/relu <- conv4_1/incep/poolproj
I0523 17:56:45.656281 30991 net.cpp:367] conv4_1/incep/poolproj/relu -> conv4_1/incep/poolproj (in-place)
I0523 17:56:45.656420 30991 net.cpp:122] Setting up conv4_1/incep/poolproj/relu
I0523 17:56:45.656430 30991 net.cpp:129] Top shape: 64 64 4 4 (65536)
I0523 17:56:45.656435 30991 net.cpp:137] Memory required for data: 168101376
I0523 17:56:45.656437 30991 layer_factory.hpp:77] Creating layer conv4_1/incep
I0523 17:56:45.656443 30991 net.cpp:84] Creating Layer conv4_1/incep
I0523 17:56:45.656446 30991 net.cpp:406] conv4_1/incep <- conv4_1/incep/0
I0523 17:56:45.656451 30991 net.cpp:406] conv4_1/incep <- conv4_1/incep/1_0
I0523 17:56:45.656455 30991 net.cpp:406] conv4_1/incep <- conv4_1/incep/2_1
I0523 17:56:45.656458 30991 net.cpp:406] conv4_1/incep <- conv4_1/incep/poolproj
I0523 17:56:45.656462 30991 net.cpp:380] conv4_1/incep -> conv4_1/incep
I0523 17:56:45.656486 30991 net.cpp:122] Setting up conv4_1/incep
I0523 17:56:45.656491 30991 net.cpp:129] Top shape: 64 184 4 4 (188416)
I0523 17:56:45.656494 30991 net.cpp:137] Memory required for data: 168855040
I0523 17:56:45.656497 30991 layer_factory.hpp:77] Creating layer conv4_1/out/conv
I0523 17:56:45.656503 30991 net.cpp:84] Creating Layer conv4_1/out/conv
I0523 17:56:45.656507 30991 net.cpp:406] conv4_1/out/conv <- conv4_1/incep
I0523 17:56:45.656514 30991 net.cpp:380] conv4_1/out/conv -> conv4_1/out
I0523 17:56:45.658042 30991 net.cpp:122] Setting up conv4_1/out/conv
I0523 17:56:45.658056 30991 net.cpp:129] Top shape: 64 128 4 4 (131072)
I0523 17:56:45.658058 30991 net.cpp:137] Memory required for data: 169379328
I0523 17:56:45.658063 30991 layer_factory.hpp:77] Creating layer conv4_1/out/bn
I0523 17:56:45.658069 30991 net.cpp:84] Creating Layer conv4_1/out/bn
I0523 17:56:45.658073 30991 net.cpp:406] conv4_1/out/bn <- conv4_1/out
I0523 17:56:45.658077 30991 net.cpp:367] conv4_1/out/bn -> conv4_1/out (in-place)
I0523 17:56:45.658231 30991 net.cpp:122] Setting up conv4_1/out/bn
I0523 17:56:45.658238 30991 net.cpp:129] Top shape: 64 128 4 4 (131072)
I0523 17:56:45.658241 30991 net.cpp:137] Memory required for data: 169903616
I0523 17:56:45.658246 30991 layer_factory.hpp:77] Creating layer conv4_1/out/bn_scale
I0523 17:56:45.658252 30991 net.cpp:84] Creating Layer conv4_1/out/bn_scale
I0523 17:56:45.658254 30991 net.cpp:406] conv4_1/out/bn_scale <- conv4_1/out
I0523 17:56:45.658259 30991 net.cpp:367] conv4_1/out/bn_scale -> conv4_1/out (in-place)
I0523 17:56:45.658289 30991 layer_factory.hpp:77] Creating layer conv4_1/out/bn_scale
I0523 17:56:45.658375 30991 net.cpp:122] Setting up conv4_1/out/bn_scale
I0523 17:56:45.658381 30991 net.cpp:129] Top shape: 64 128 4 4 (131072)
I0523 17:56:45.658385 30991 net.cpp:137] Memory required for data: 170427904
I0523 17:56:45.658390 30991 layer_factory.hpp:77] Creating layer conv4_1/proj
I0523 17:56:45.658396 30991 net.cpp:84] Creating Layer conv4_1/proj
I0523 17:56:45.658399 30991 net.cpp:406] conv4_1/proj <- conv3_4_conv3_4_0_split_4
I0523 17:56:45.658404 30991 net.cpp:380] conv4_1/proj -> conv4_1/proj
I0523 17:56:45.659309 30991 net.cpp:122] Setting up conv4_1/proj
I0523 17:56:45.659322 30991 net.cpp:129] Top shape: 64 128 4 4 (131072)
I0523 17:56:45.659325 30991 net.cpp:137] Memory required for data: 170952192
I0523 17:56:45.659330 30991 layer_factory.hpp:77] Creating layer conv4_1/proj_bn
I0523 17:56:45.659337 30991 net.cpp:84] Creating Layer conv4_1/proj_bn
I0523 17:56:45.659342 30991 net.cpp:406] conv4_1/proj_bn <- conv4_1/proj
I0523 17:56:45.659345 30991 net.cpp:367] conv4_1/proj_bn -> conv4_1/proj (in-place)
I0523 17:56:45.659493 30991 net.cpp:122] Setting up conv4_1/proj_bn
I0523 17:56:45.659500 30991 net.cpp:129] Top shape: 64 128 4 4 (131072)
I0523 17:56:45.659504 30991 net.cpp:137] Memory required for data: 171476480
I0523 17:56:45.659509 30991 layer_factory.hpp:77] Creating layer conv4_1/proj_bn_scale
I0523 17:56:45.659514 30991 net.cpp:84] Creating Layer conv4_1/proj_bn_scale
I0523 17:56:45.659518 30991 net.cpp:406] conv4_1/proj_bn_scale <- conv4_1/proj
I0523 17:56:45.659521 30991 net.cpp:367] conv4_1/proj_bn_scale -> conv4_1/proj (in-place)
I0523 17:56:45.659553 30991 layer_factory.hpp:77] Creating layer conv4_1/proj_bn_scale
I0523 17:56:45.659641 30991 net.cpp:122] Setting up conv4_1/proj_bn_scale
I0523 17:56:45.659646 30991 net.cpp:129] Top shape: 64 128 4 4 (131072)
I0523 17:56:45.659649 30991 net.cpp:137] Memory required for data: 172000768
I0523 17:56:45.659653 30991 layer_factory.hpp:77] Creating layer conv4_1
I0523 17:56:45.659659 30991 net.cpp:84] Creating Layer conv4_1
I0523 17:56:45.659662 30991 net.cpp:406] conv4_1 <- conv4_1/out
I0523 17:56:45.659667 30991 net.cpp:406] conv4_1 <- conv4_1/proj
I0523 17:56:45.659672 30991 net.cpp:380] conv4_1 -> conv4_1
I0523 17:56:45.659690 30991 net.cpp:122] Setting up conv4_1
I0523 17:56:45.659696 30991 net.cpp:129] Top shape: 64 128 4 4 (131072)
I0523 17:56:45.659699 30991 net.cpp:137] Memory required for data: 172525056
I0523 17:56:45.659703 30991 layer_factory.hpp:77] Creating layer conv4_1_conv4_1_0_split
I0523 17:56:45.659713 30991 net.cpp:84] Creating Layer conv4_1_conv4_1_0_split
I0523 17:56:45.659718 30991 net.cpp:406] conv4_1_conv4_1_0_split <- conv4_1
I0523 17:56:45.659723 30991 net.cpp:380] conv4_1_conv4_1_0_split -> conv4_1_conv4_1_0_split_0
I0523 17:56:45.659729 30991 net.cpp:380] conv4_1_conv4_1_0_split -> conv4_1_conv4_1_0_split_1
I0523 17:56:45.659741 30991 net.cpp:380] conv4_1_conv4_1_0_split -> conv4_1_conv4_1_0_split_2
I0523 17:56:45.659746 30991 net.cpp:380] conv4_1_conv4_1_0_split -> conv4_1_conv4_1_0_split_3
I0523 17:56:45.659792 30991 net.cpp:122] Setting up conv4_1_conv4_1_0_split
I0523 17:56:45.659797 30991 net.cpp:129] Top shape: 64 128 4 4 (131072)
I0523 17:56:45.659801 30991 net.cpp:129] Top shape: 64 128 4 4 (131072)
I0523 17:56:45.659804 30991 net.cpp:129] Top shape: 64 128 4 4 (131072)
I0523 17:56:45.659808 30991 net.cpp:129] Top shape: 64 128 4 4 (131072)
I0523 17:56:45.659811 30991 net.cpp:137] Memory required for data: 174622208
I0523 17:56:45.659813 30991 layer_factory.hpp:77] Creating layer conv4_2/incep/0/conv
I0523 17:56:45.659819 30991 net.cpp:84] Creating Layer conv4_2/incep/0/conv
I0523 17:56:45.659823 30991 net.cpp:406] conv4_2/incep/0/conv <- conv4_1_conv4_1_0_split_0
I0523 17:56:45.659828 30991 net.cpp:380] conv4_2/incep/0/conv -> conv4_2/incep/0
I0523 17:56:45.660749 30991 net.cpp:122] Setting up conv4_2/incep/0/conv
I0523 17:56:45.660764 30991 net.cpp:129] Top shape: 64 32 4 4 (32768)
I0523 17:56:45.660768 30991 net.cpp:137] Memory required for data: 174753280
I0523 17:56:45.660773 30991 layer_factory.hpp:77] Creating layer conv4_2/incep/0/bn
I0523 17:56:45.660779 30991 net.cpp:84] Creating Layer conv4_2/incep/0/bn
I0523 17:56:45.660782 30991 net.cpp:406] conv4_2/incep/0/bn <- conv4_2/incep/0
I0523 17:56:45.660789 30991 net.cpp:367] conv4_2/incep/0/bn -> conv4_2/incep/0 (in-place)
I0523 17:56:45.660955 30991 net.cpp:122] Setting up conv4_2/incep/0/bn
I0523 17:56:45.660962 30991 net.cpp:129] Top shape: 64 32 4 4 (32768)
I0523 17:56:45.660965 30991 net.cpp:137] Memory required for data: 174884352
I0523 17:56:45.660970 30991 layer_factory.hpp:77] Creating layer conv4_2/incep/0/bn_scale
I0523 17:56:45.660975 30991 net.cpp:84] Creating Layer conv4_2/incep/0/bn_scale
I0523 17:56:45.660979 30991 net.cpp:406] conv4_2/incep/0/bn_scale <- conv4_2/incep/0
I0523 17:56:45.660984 30991 net.cpp:367] conv4_2/incep/0/bn_scale -> conv4_2/incep/0 (in-place)
I0523 17:56:45.661015 30991 layer_factory.hpp:77] Creating layer conv4_2/incep/0/bn_scale
I0523 17:56:45.661106 30991 net.cpp:122] Setting up conv4_2/incep/0/bn_scale
I0523 17:56:45.661113 30991 net.cpp:129] Top shape: 64 32 4 4 (32768)
I0523 17:56:45.661115 30991 net.cpp:137] Memory required for data: 175015424
I0523 17:56:45.661120 30991 layer_factory.hpp:77] Creating layer conv4_2/incep/0/relu
I0523 17:56:45.661125 30991 net.cpp:84] Creating Layer conv4_2/incep/0/relu
I0523 17:56:45.661128 30991 net.cpp:406] conv4_2/incep/0/relu <- conv4_2/incep/0
I0523 17:56:45.661133 30991 net.cpp:367] conv4_2/incep/0/relu -> conv4_2/incep/0 (in-place)
I0523 17:56:45.661267 30991 net.cpp:122] Setting up conv4_2/incep/0/relu
I0523 17:56:45.661273 30991 net.cpp:129] Top shape: 64 32 4 4 (32768)
I0523 17:56:45.661276 30991 net.cpp:137] Memory required for data: 175146496
I0523 17:56:45.661279 30991 layer_factory.hpp:77] Creating layer conv4_2/incep/1_reduce/conv
I0523 17:56:45.661286 30991 net.cpp:84] Creating Layer conv4_2/incep/1_reduce/conv
I0523 17:56:45.661289 30991 net.cpp:406] conv4_2/incep/1_reduce/conv <- conv4_1_conv4_1_0_split_1
I0523 17:56:45.661295 30991 net.cpp:380] conv4_2/incep/1_reduce/conv -> conv4_2/incep/1_reduce
I0523 17:56:45.662410 30991 net.cpp:122] Setting up conv4_2/incep/1_reduce/conv
I0523 17:56:45.662421 30991 net.cpp:129] Top shape: 64 32 4 4 (32768)
I0523 17:56:45.662425 30991 net.cpp:137] Memory required for data: 175277568
I0523 17:56:45.662431 30991 layer_factory.hpp:77] Creating layer conv4_2/incep/1_reduce/bn
I0523 17:56:45.662436 30991 net.cpp:84] Creating Layer conv4_2/incep/1_reduce/bn
I0523 17:56:45.662439 30991 net.cpp:406] conv4_2/incep/1_reduce/bn <- conv4_2/incep/1_reduce
I0523 17:56:45.662444 30991 net.cpp:367] conv4_2/incep/1_reduce/bn -> conv4_2/incep/1_reduce (in-place)
I0523 17:56:45.662602 30991 net.cpp:122] Setting up conv4_2/incep/1_reduce/bn
I0523 17:56:45.662609 30991 net.cpp:129] Top shape: 64 32 4 4 (32768)
I0523 17:56:45.662617 30991 net.cpp:137] Memory required for data: 175408640
I0523 17:56:45.662622 30991 layer_factory.hpp:77] Creating layer conv4_2/incep/1_reduce/bn_scale
I0523 17:56:45.662627 30991 net.cpp:84] Creating Layer conv4_2/incep/1_reduce/bn_scale
I0523 17:56:45.662631 30991 net.cpp:406] conv4_2/incep/1_reduce/bn_scale <- conv4_2/incep/1_reduce
I0523 17:56:45.662634 30991 net.cpp:367] conv4_2/incep/1_reduce/bn_scale -> conv4_2/incep/1_reduce (in-place)
I0523 17:56:45.662667 30991 layer_factory.hpp:77] Creating layer conv4_2/incep/1_reduce/bn_scale
I0523 17:56:45.662757 30991 net.cpp:122] Setting up conv4_2/incep/1_reduce/bn_scale
I0523 17:56:45.662765 30991 net.cpp:129] Top shape: 64 32 4 4 (32768)
I0523 17:56:45.662767 30991 net.cpp:137] Memory required for data: 175539712
I0523 17:56:45.662771 30991 layer_factory.hpp:77] Creating layer conv4_2/incep/1_reduce/relu
I0523 17:56:45.662776 30991 net.cpp:84] Creating Layer conv4_2/incep/1_reduce/relu
I0523 17:56:45.662781 30991 net.cpp:406] conv4_2/incep/1_reduce/relu <- conv4_2/incep/1_reduce
I0523 17:56:45.662783 30991 net.cpp:367] conv4_2/incep/1_reduce/relu -> conv4_2/incep/1_reduce (in-place)
I0523 17:56:45.662916 30991 net.cpp:122] Setting up conv4_2/incep/1_reduce/relu
I0523 17:56:45.662925 30991 net.cpp:129] Top shape: 64 32 4 4 (32768)
I0523 17:56:45.662927 30991 net.cpp:137] Memory required for data: 175670784
I0523 17:56:45.662930 30991 layer_factory.hpp:77] Creating layer conv4_2/incep/1_0/conv
I0523 17:56:45.662936 30991 net.cpp:84] Creating Layer conv4_2/incep/1_0/conv
I0523 17:56:45.662940 30991 net.cpp:406] conv4_2/incep/1_0/conv <- conv4_2/incep/1_reduce
I0523 17:56:45.662945 30991 net.cpp:380] conv4_2/incep/1_0/conv -> conv4_2/incep/1_0
I0523 17:56:45.663836 30991 net.cpp:122] Setting up conv4_2/incep/1_0/conv
I0523 17:56:45.663846 30991 net.cpp:129] Top shape: 64 64 4 4 (65536)
I0523 17:56:45.663849 30991 net.cpp:137] Memory required for data: 175932928
I0523 17:56:45.663854 30991 layer_factory.hpp:77] Creating layer conv4_2/incep/1_0/bn
I0523 17:56:45.663861 30991 net.cpp:84] Creating Layer conv4_2/incep/1_0/bn
I0523 17:56:45.663864 30991 net.cpp:406] conv4_2/incep/1_0/bn <- conv4_2/incep/1_0
I0523 17:56:45.663868 30991 net.cpp:367] conv4_2/incep/1_0/bn -> conv4_2/incep/1_0 (in-place)
I0523 17:56:45.664031 30991 net.cpp:122] Setting up conv4_2/incep/1_0/bn
I0523 17:56:45.664037 30991 net.cpp:129] Top shape: 64 64 4 4 (65536)
I0523 17:56:45.664041 30991 net.cpp:137] Memory required for data: 176195072
I0523 17:56:45.664046 30991 layer_factory.hpp:77] Creating layer conv4_2/incep/1_0/bn_scale
I0523 17:56:45.664050 30991 net.cpp:84] Creating Layer conv4_2/incep/1_0/bn_scale
I0523 17:56:45.664053 30991 net.cpp:406] conv4_2/incep/1_0/bn_scale <- conv4_2/incep/1_0
I0523 17:56:45.664058 30991 net.cpp:367] conv4_2/incep/1_0/bn_scale -> conv4_2/incep/1_0 (in-place)
I0523 17:56:45.664096 30991 layer_factory.hpp:77] Creating layer conv4_2/incep/1_0/bn_scale
I0523 17:56:45.664189 30991 net.cpp:122] Setting up conv4_2/incep/1_0/bn_scale
I0523 17:56:45.664196 30991 net.cpp:129] Top shape: 64 64 4 4 (65536)
I0523 17:56:45.664199 30991 net.cpp:137] Memory required for data: 176457216
I0523 17:56:45.664203 30991 layer_factory.hpp:77] Creating layer conv4_2/incep/1_0/relu
I0523 17:56:45.664208 30991 net.cpp:84] Creating Layer conv4_2/incep/1_0/relu
I0523 17:56:45.664211 30991 net.cpp:406] conv4_2/incep/1_0/relu <- conv4_2/incep/1_0
I0523 17:56:45.664216 30991 net.cpp:367] conv4_2/incep/1_0/relu -> conv4_2/incep/1_0 (in-place)
I0523 17:56:45.664348 30991 net.cpp:122] Setting up conv4_2/incep/1_0/relu
I0523 17:56:45.664356 30991 net.cpp:129] Top shape: 64 64 4 4 (65536)
I0523 17:56:45.664360 30991 net.cpp:137] Memory required for data: 176719360
I0523 17:56:45.664362 30991 layer_factory.hpp:77] Creating layer conv4_2/incep/2_reduce/conv
I0523 17:56:45.664369 30991 net.cpp:84] Creating Layer conv4_2/incep/2_reduce/conv
I0523 17:56:45.664372 30991 net.cpp:406] conv4_2/incep/2_reduce/conv <- conv4_1_conv4_1_0_split_2
I0523 17:56:45.664377 30991 net.cpp:380] conv4_2/incep/2_reduce/conv -> conv4_2/incep/2_reduce
I0523 17:56:45.665213 30991 net.cpp:122] Setting up conv4_2/incep/2_reduce/conv
I0523 17:56:45.665225 30991 net.cpp:129] Top shape: 64 12 4 4 (12288)
I0523 17:56:45.665227 30991 net.cpp:137] Memory required for data: 176768512
I0523 17:56:45.665231 30991 layer_factory.hpp:77] Creating layer conv4_2/incep/2_reduce/bn
I0523 17:56:45.665237 30991 net.cpp:84] Creating Layer conv4_2/incep/2_reduce/bn
I0523 17:56:45.665241 30991 net.cpp:406] conv4_2/incep/2_reduce/bn <- conv4_2/incep/2_reduce
I0523 17:56:45.665246 30991 net.cpp:367] conv4_2/incep/2_reduce/bn -> conv4_2/incep/2_reduce (in-place)
I0523 17:56:45.665410 30991 net.cpp:122] Setting up conv4_2/incep/2_reduce/bn
I0523 17:56:45.665416 30991 net.cpp:129] Top shape: 64 12 4 4 (12288)
I0523 17:56:45.665419 30991 net.cpp:137] Memory required for data: 176817664
I0523 17:56:45.665424 30991 layer_factory.hpp:77] Creating layer conv4_2/incep/2_reduce/bn_scale
I0523 17:56:45.665428 30991 net.cpp:84] Creating Layer conv4_2/incep/2_reduce/bn_scale
I0523 17:56:45.665432 30991 net.cpp:406] conv4_2/incep/2_reduce/bn_scale <- conv4_2/incep/2_reduce
I0523 17:56:45.665436 30991 net.cpp:367] conv4_2/incep/2_reduce/bn_scale -> conv4_2/incep/2_reduce (in-place)
I0523 17:56:45.665469 30991 layer_factory.hpp:77] Creating layer conv4_2/incep/2_reduce/bn_scale
I0523 17:56:45.665561 30991 net.cpp:122] Setting up conv4_2/incep/2_reduce/bn_scale
I0523 17:56:45.665568 30991 net.cpp:129] Top shape: 64 12 4 4 (12288)
I0523 17:56:45.665571 30991 net.cpp:137] Memory required for data: 176866816
I0523 17:56:45.665575 30991 layer_factory.hpp:77] Creating layer conv4_2/incep/2_reduce/relu
I0523 17:56:45.665580 30991 net.cpp:84] Creating Layer conv4_2/incep/2_reduce/relu
I0523 17:56:45.665583 30991 net.cpp:406] conv4_2/incep/2_reduce/relu <- conv4_2/incep/2_reduce
I0523 17:56:45.665588 30991 net.cpp:367] conv4_2/incep/2_reduce/relu -> conv4_2/incep/2_reduce (in-place)
I0523 17:56:45.665717 30991 net.cpp:122] Setting up conv4_2/incep/2_reduce/relu
I0523 17:56:45.665725 30991 net.cpp:129] Top shape: 64 12 4 4 (12288)
I0523 17:56:45.665729 30991 net.cpp:137] Memory required for data: 176915968
I0523 17:56:45.665731 30991 layer_factory.hpp:77] Creating layer conv4_2/incep/2_0/conv
I0523 17:56:45.665738 30991 net.cpp:84] Creating Layer conv4_2/incep/2_0/conv
I0523 17:56:45.665742 30991 net.cpp:406] conv4_2/incep/2_0/conv <- conv4_2/incep/2_reduce
I0523 17:56:45.665747 30991 net.cpp:380] conv4_2/incep/2_0/conv -> conv4_2/incep/2_0
I0523 17:56:45.666574 30991 net.cpp:122] Setting up conv4_2/incep/2_0/conv
I0523 17:56:45.666586 30991 net.cpp:129] Top shape: 64 24 4 4 (24576)
I0523 17:56:45.666589 30991 net.cpp:137] Memory required for data: 177014272
I0523 17:56:45.666594 30991 layer_factory.hpp:77] Creating layer conv4_2/incep/2_0/bn
I0523 17:56:45.666599 30991 net.cpp:84] Creating Layer conv4_2/incep/2_0/bn
I0523 17:56:45.666604 30991 net.cpp:406] conv4_2/incep/2_0/bn <- conv4_2/incep/2_0
I0523 17:56:45.666607 30991 net.cpp:367] conv4_2/incep/2_0/bn -> conv4_2/incep/2_0 (in-place)
I0523 17:56:45.666769 30991 net.cpp:122] Setting up conv4_2/incep/2_0/bn
I0523 17:56:45.666779 30991 net.cpp:129] Top shape: 64 24 4 4 (24576)
I0523 17:56:45.666781 30991 net.cpp:137] Memory required for data: 177112576
I0523 17:56:45.666786 30991 layer_factory.hpp:77] Creating layer conv4_2/incep/2_0/bn_scale
I0523 17:56:45.666791 30991 net.cpp:84] Creating Layer conv4_2/incep/2_0/bn_scale
I0523 17:56:45.666795 30991 net.cpp:406] conv4_2/incep/2_0/bn_scale <- conv4_2/incep/2_0
I0523 17:56:45.666797 30991 net.cpp:367] conv4_2/incep/2_0/bn_scale -> conv4_2/incep/2_0 (in-place)
I0523 17:56:45.666829 30991 layer_factory.hpp:77] Creating layer conv4_2/incep/2_0/bn_scale
I0523 17:56:45.666923 30991 net.cpp:122] Setting up conv4_2/incep/2_0/bn_scale
I0523 17:56:45.666929 30991 net.cpp:129] Top shape: 64 24 4 4 (24576)
I0523 17:56:45.666932 30991 net.cpp:137] Memory required for data: 177210880
I0523 17:56:45.666937 30991 layer_factory.hpp:77] Creating layer conv4_2/incep/2_0/relu
I0523 17:56:45.666945 30991 net.cpp:84] Creating Layer conv4_2/incep/2_0/relu
I0523 17:56:45.666949 30991 net.cpp:406] conv4_2/incep/2_0/relu <- conv4_2/incep/2_0
I0523 17:56:45.666952 30991 net.cpp:367] conv4_2/incep/2_0/relu -> conv4_2/incep/2_0 (in-place)
I0523 17:56:45.667345 30991 net.cpp:122] Setting up conv4_2/incep/2_0/relu
I0523 17:56:45.667356 30991 net.cpp:129] Top shape: 64 24 4 4 (24576)
I0523 17:56:45.667359 30991 net.cpp:137] Memory required for data: 177309184
I0523 17:56:45.667362 30991 layer_factory.hpp:77] Creating layer conv4_2/incep/2_1/conv
I0523 17:56:45.667369 30991 net.cpp:84] Creating Layer conv4_2/incep/2_1/conv
I0523 17:56:45.667372 30991 net.cpp:406] conv4_2/incep/2_1/conv <- conv4_2/incep/2_0
I0523 17:56:45.667377 30991 net.cpp:380] conv4_2/incep/2_1/conv -> conv4_2/incep/2_1
I0523 17:56:45.667968 30991 net.cpp:122] Setting up conv4_2/incep/2_1/conv
I0523 17:56:45.667979 30991 net.cpp:129] Top shape: 64 24 4 4 (24576)
I0523 17:56:45.667981 30991 net.cpp:137] Memory required for data: 177407488
I0523 17:56:45.667986 30991 layer_factory.hpp:77] Creating layer conv4_2/incep/2_1/bn
I0523 17:56:45.667990 30991 net.cpp:84] Creating Layer conv4_2/incep/2_1/bn
I0523 17:56:45.667994 30991 net.cpp:406] conv4_2/incep/2_1/bn <- conv4_2/incep/2_1
I0523 17:56:45.667999 30991 net.cpp:367] conv4_2/incep/2_1/bn -> conv4_2/incep/2_1 (in-place)
I0523 17:56:45.668164 30991 net.cpp:122] Setting up conv4_2/incep/2_1/bn
I0523 17:56:45.668170 30991 net.cpp:129] Top shape: 64 24 4 4 (24576)
I0523 17:56:45.668174 30991 net.cpp:137] Memory required for data: 177505792
I0523 17:56:45.668179 30991 layer_factory.hpp:77] Creating layer conv4_2/incep/2_1/bn_scale
I0523 17:56:45.668184 30991 net.cpp:84] Creating Layer conv4_2/incep/2_1/bn_scale
I0523 17:56:45.668187 30991 net.cpp:406] conv4_2/incep/2_1/bn_scale <- conv4_2/incep/2_1
I0523 17:56:45.668191 30991 net.cpp:367] conv4_2/incep/2_1/bn_scale -> conv4_2/incep/2_1 (in-place)
I0523 17:56:45.668222 30991 layer_factory.hpp:77] Creating layer conv4_2/incep/2_1/bn_scale
I0523 17:56:45.668315 30991 net.cpp:122] Setting up conv4_2/incep/2_1/bn_scale
I0523 17:56:45.668321 30991 net.cpp:129] Top shape: 64 24 4 4 (24576)
I0523 17:56:45.668324 30991 net.cpp:137] Memory required for data: 177604096
I0523 17:56:45.668329 30991 layer_factory.hpp:77] Creating layer conv4_2/incep/2_1/relu
I0523 17:56:45.668334 30991 net.cpp:84] Creating Layer conv4_2/incep/2_1/relu
I0523 17:56:45.668336 30991 net.cpp:406] conv4_2/incep/2_1/relu <- conv4_2/incep/2_1
I0523 17:56:45.668341 30991 net.cpp:367] conv4_2/incep/2_1/relu -> conv4_2/incep/2_1 (in-place)
I0523 17:56:45.668740 30991 net.cpp:122] Setting up conv4_2/incep/2_1/relu
I0523 17:56:45.668751 30991 net.cpp:129] Top shape: 64 24 4 4 (24576)
I0523 17:56:45.668754 30991 net.cpp:137] Memory required for data: 177702400
I0523 17:56:45.668757 30991 layer_factory.hpp:77] Creating layer conv4_2/incep
I0523 17:56:45.668762 30991 net.cpp:84] Creating Layer conv4_2/incep
I0523 17:56:45.668766 30991 net.cpp:406] conv4_2/incep <- conv4_2/incep/0
I0523 17:56:45.668769 30991 net.cpp:406] conv4_2/incep <- conv4_2/incep/1_0
I0523 17:56:45.668773 30991 net.cpp:406] conv4_2/incep <- conv4_2/incep/2_1
I0523 17:56:45.668778 30991 net.cpp:380] conv4_2/incep -> conv4_2/incep
I0523 17:56:45.668802 30991 net.cpp:122] Setting up conv4_2/incep
I0523 17:56:45.668808 30991 net.cpp:129] Top shape: 64 120 4 4 (122880)
I0523 17:56:45.668812 30991 net.cpp:137] Memory required for data: 178193920
I0523 17:56:45.668814 30991 layer_factory.hpp:77] Creating layer conv4_2/out/conv
I0523 17:56:45.668820 30991 net.cpp:84] Creating Layer conv4_2/out/conv
I0523 17:56:45.668824 30991 net.cpp:406] conv4_2/out/conv <- conv4_2/incep
I0523 17:56:45.668828 30991 net.cpp:380] conv4_2/out/conv -> conv4_2/out
I0523 17:56:45.669754 30991 net.cpp:122] Setting up conv4_2/out/conv
I0523 17:56:45.669767 30991 net.cpp:129] Top shape: 64 128 4 4 (131072)
I0523 17:56:45.669772 30991 net.cpp:137] Memory required for data: 178718208
I0523 17:56:45.669780 30991 layer_factory.hpp:77] Creating layer conv4_2/out/bn
I0523 17:56:45.669792 30991 net.cpp:84] Creating Layer conv4_2/out/bn
I0523 17:56:45.669800 30991 net.cpp:406] conv4_2/out/bn <- conv4_2/out
I0523 17:56:45.669806 30991 net.cpp:367] conv4_2/out/bn -> conv4_2/out (in-place)
I0523 17:56:45.669975 30991 net.cpp:122] Setting up conv4_2/out/bn
I0523 17:56:45.669981 30991 net.cpp:129] Top shape: 64 128 4 4 (131072)
I0523 17:56:45.669984 30991 net.cpp:137] Memory required for data: 179242496
I0523 17:56:45.669991 30991 layer_factory.hpp:77] Creating layer conv4_2/out/bn_scale
I0523 17:56:45.669994 30991 net.cpp:84] Creating Layer conv4_2/out/bn_scale
I0523 17:56:45.669997 30991 net.cpp:406] conv4_2/out/bn_scale <- conv4_2/out
I0523 17:56:45.670002 30991 net.cpp:367] conv4_2/out/bn_scale -> conv4_2/out (in-place)
I0523 17:56:45.670034 30991 layer_factory.hpp:77] Creating layer conv4_2/out/bn_scale
I0523 17:56:45.670122 30991 net.cpp:122] Setting up conv4_2/out/bn_scale
I0523 17:56:45.670130 30991 net.cpp:129] Top shape: 64 128 4 4 (131072)
I0523 17:56:45.670132 30991 net.cpp:137] Memory required for data: 179766784
I0523 17:56:45.670136 30991 layer_factory.hpp:77] Creating layer conv4_2
I0523 17:56:45.670141 30991 net.cpp:84] Creating Layer conv4_2
I0523 17:56:45.670145 30991 net.cpp:406] conv4_2 <- conv4_2/out
I0523 17:56:45.670148 30991 net.cpp:406] conv4_2 <- conv4_1_conv4_1_0_split_3
I0523 17:56:45.670155 30991 net.cpp:380] conv4_2 -> conv4_2
I0523 17:56:45.670181 30991 net.cpp:122] Setting up conv4_2
I0523 17:56:45.670187 30991 net.cpp:129] Top shape: 64 128 4 4 (131072)
I0523 17:56:45.670191 30991 net.cpp:137] Memory required for data: 180291072
I0523 17:56:45.670193 30991 layer_factory.hpp:77] Creating layer conv4_2_conv4_2_0_split
I0523 17:56:45.670197 30991 net.cpp:84] Creating Layer conv4_2_conv4_2_0_split
I0523 17:56:45.670200 30991 net.cpp:406] conv4_2_conv4_2_0_split <- conv4_2
I0523 17:56:45.670205 30991 net.cpp:380] conv4_2_conv4_2_0_split -> conv4_2_conv4_2_0_split_0
I0523 17:56:45.670212 30991 net.cpp:380] conv4_2_conv4_2_0_split -> conv4_2_conv4_2_0_split_1
I0523 17:56:45.670217 30991 net.cpp:380] conv4_2_conv4_2_0_split -> conv4_2_conv4_2_0_split_2
I0523 17:56:45.670222 30991 net.cpp:380] conv4_2_conv4_2_0_split -> conv4_2_conv4_2_0_split_3
I0523 17:56:45.670266 30991 net.cpp:122] Setting up conv4_2_conv4_2_0_split
I0523 17:56:45.670271 30991 net.cpp:129] Top shape: 64 128 4 4 (131072)
I0523 17:56:45.670275 30991 net.cpp:129] Top shape: 64 128 4 4 (131072)
I0523 17:56:45.670279 30991 net.cpp:129] Top shape: 64 128 4 4 (131072)
I0523 17:56:45.670282 30991 net.cpp:129] Top shape: 64 128 4 4 (131072)
I0523 17:56:45.670284 30991 net.cpp:137] Memory required for data: 182388224
I0523 17:56:45.670287 30991 layer_factory.hpp:77] Creating layer conv4_3/incep/0/conv
I0523 17:56:45.670294 30991 net.cpp:84] Creating Layer conv4_3/incep/0/conv
I0523 17:56:45.670296 30991 net.cpp:406] conv4_3/incep/0/conv <- conv4_2_conv4_2_0_split_0
I0523 17:56:45.670301 30991 net.cpp:380] conv4_3/incep/0/conv -> conv4_3/incep/0
I0523 17:56:45.671212 30991 net.cpp:122] Setting up conv4_3/incep/0/conv
I0523 17:56:45.671224 30991 net.cpp:129] Top shape: 64 32 4 4 (32768)
I0523 17:56:45.671228 30991 net.cpp:137] Memory required for data: 182519296
I0523 17:56:45.671233 30991 layer_factory.hpp:77] Creating layer conv4_3/incep/0/bn
I0523 17:56:45.671238 30991 net.cpp:84] Creating Layer conv4_3/incep/0/bn
I0523 17:56:45.671242 30991 net.cpp:406] conv4_3/incep/0/bn <- conv4_3/incep/0
I0523 17:56:45.671247 30991 net.cpp:367] conv4_3/incep/0/bn -> conv4_3/incep/0 (in-place)
I0523 17:56:45.671439 30991 net.cpp:122] Setting up conv4_3/incep/0/bn
I0523 17:56:45.671448 30991 net.cpp:129] Top shape: 64 32 4 4 (32768)
I0523 17:56:45.671452 30991 net.cpp:137] Memory required for data: 182650368
I0523 17:56:45.671456 30991 layer_factory.hpp:77] Creating layer conv4_3/incep/0/bn_scale
I0523 17:56:45.671461 30991 net.cpp:84] Creating Layer conv4_3/incep/0/bn_scale
I0523 17:56:45.671465 30991 net.cpp:406] conv4_3/incep/0/bn_scale <- conv4_3/incep/0
I0523 17:56:45.671469 30991 net.cpp:367] conv4_3/incep/0/bn_scale -> conv4_3/incep/0 (in-place)
I0523 17:56:45.671520 30991 layer_factory.hpp:77] Creating layer conv4_3/incep/0/bn_scale
I0523 17:56:45.671619 30991 net.cpp:122] Setting up conv4_3/incep/0/bn_scale
I0523 17:56:45.671627 30991 net.cpp:129] Top shape: 64 32 4 4 (32768)
I0523 17:56:45.671630 30991 net.cpp:137] Memory required for data: 182781440
I0523 17:56:45.671635 30991 layer_factory.hpp:77] Creating layer conv4_3/incep/0/relu
I0523 17:56:45.671640 30991 net.cpp:84] Creating Layer conv4_3/incep/0/relu
I0523 17:56:45.671643 30991 net.cpp:406] conv4_3/incep/0/relu <- conv4_3/incep/0
I0523 17:56:45.671648 30991 net.cpp:367] conv4_3/incep/0/relu -> conv4_3/incep/0 (in-place)
I0523 17:56:45.671805 30991 net.cpp:122] Setting up conv4_3/incep/0/relu
I0523 17:56:45.671815 30991 net.cpp:129] Top shape: 64 32 4 4 (32768)
I0523 17:56:45.671818 30991 net.cpp:137] Memory required for data: 182912512
I0523 17:56:45.671821 30991 layer_factory.hpp:77] Creating layer conv4_3/incep/1_reduce/conv
I0523 17:56:45.671828 30991 net.cpp:84] Creating Layer conv4_3/incep/1_reduce/conv
I0523 17:56:45.671833 30991 net.cpp:406] conv4_3/incep/1_reduce/conv <- conv4_2_conv4_2_0_split_1
I0523 17:56:45.671838 30991 net.cpp:380] conv4_3/incep/1_reduce/conv -> conv4_3/incep/1_reduce
I0523 17:56:45.672758 30991 net.cpp:122] Setting up conv4_3/incep/1_reduce/conv
I0523 17:56:45.672771 30991 net.cpp:129] Top shape: 64 32 4 4 (32768)
I0523 17:56:45.672775 30991 net.cpp:137] Memory required for data: 183043584
I0523 17:56:45.672780 30991 layer_factory.hpp:77] Creating layer conv4_3/incep/1_reduce/bn
I0523 17:56:45.672786 30991 net.cpp:84] Creating Layer conv4_3/incep/1_reduce/bn
I0523 17:56:45.672791 30991 net.cpp:406] conv4_3/incep/1_reduce/bn <- conv4_3/incep/1_reduce
I0523 17:56:45.672796 30991 net.cpp:367] conv4_3/incep/1_reduce/bn -> conv4_3/incep/1_reduce (in-place)
I0523 17:56:45.672963 30991 net.cpp:122] Setting up conv4_3/incep/1_reduce/bn
I0523 17:56:45.672971 30991 net.cpp:129] Top shape: 64 32 4 4 (32768)
I0523 17:56:45.672973 30991 net.cpp:137] Memory required for data: 183174656
I0523 17:56:45.672978 30991 layer_factory.hpp:77] Creating layer conv4_3/incep/1_reduce/bn_scale
I0523 17:56:45.672983 30991 net.cpp:84] Creating Layer conv4_3/incep/1_reduce/bn_scale
I0523 17:56:45.672986 30991 net.cpp:406] conv4_3/incep/1_reduce/bn_scale <- conv4_3/incep/1_reduce
I0523 17:56:45.672991 30991 net.cpp:367] conv4_3/incep/1_reduce/bn_scale -> conv4_3/incep/1_reduce (in-place)
I0523 17:56:45.673025 30991 layer_factory.hpp:77] Creating layer conv4_3/incep/1_reduce/bn_scale
I0523 17:56:45.673140 30991 net.cpp:122] Setting up conv4_3/incep/1_reduce/bn_scale
I0523 17:56:45.673149 30991 net.cpp:129] Top shape: 64 32 4 4 (32768)
I0523 17:56:45.673152 30991 net.cpp:137] Memory required for data: 183305728
I0523 17:56:45.673157 30991 layer_factory.hpp:77] Creating layer conv4_3/incep/1_reduce/relu
I0523 17:56:45.673161 30991 net.cpp:84] Creating Layer conv4_3/incep/1_reduce/relu
I0523 17:56:45.673164 30991 net.cpp:406] conv4_3/incep/1_reduce/relu <- conv4_3/incep/1_reduce
I0523 17:56:45.673168 30991 net.cpp:367] conv4_3/incep/1_reduce/relu -> conv4_3/incep/1_reduce (in-place)
I0523 17:56:45.673305 30991 net.cpp:122] Setting up conv4_3/incep/1_reduce/relu
I0523 17:56:45.673313 30991 net.cpp:129] Top shape: 64 32 4 4 (32768)
I0523 17:56:45.673316 30991 net.cpp:137] Memory required for data: 183436800
I0523 17:56:45.673318 30991 layer_factory.hpp:77] Creating layer conv4_3/incep/1_0/conv
I0523 17:56:45.673326 30991 net.cpp:84] Creating Layer conv4_3/incep/1_0/conv
I0523 17:56:45.673328 30991 net.cpp:406] conv4_3/incep/1_0/conv <- conv4_3/incep/1_reduce
I0523 17:56:45.673334 30991 net.cpp:380] conv4_3/incep/1_0/conv -> conv4_3/incep/1_0
I0523 17:56:45.674319 30991 net.cpp:122] Setting up conv4_3/incep/1_0/conv
I0523 17:56:45.674329 30991 net.cpp:129] Top shape: 64 64 4 4 (65536)
I0523 17:56:45.674334 30991 net.cpp:137] Memory required for data: 183698944
I0523 17:56:45.674337 30991 layer_factory.hpp:77] Creating layer conv4_3/incep/1_0/bn
I0523 17:56:45.674342 30991 net.cpp:84] Creating Layer conv4_3/incep/1_0/bn
I0523 17:56:45.674350 30991 net.cpp:406] conv4_3/incep/1_0/bn <- conv4_3/incep/1_0
I0523 17:56:45.674355 30991 net.cpp:367] conv4_3/incep/1_0/bn -> conv4_3/incep/1_0 (in-place)
I0523 17:56:45.674516 30991 net.cpp:122] Setting up conv4_3/incep/1_0/bn
I0523 17:56:45.674523 30991 net.cpp:129] Top shape: 64 64 4 4 (65536)
I0523 17:56:45.674526 30991 net.cpp:137] Memory required for data: 183961088
I0523 17:56:45.674548 30991 layer_factory.hpp:77] Creating layer conv4_3/incep/1_0/bn_scale
I0523 17:56:45.674553 30991 net.cpp:84] Creating Layer conv4_3/incep/1_0/bn_scale
I0523 17:56:45.674557 30991 net.cpp:406] conv4_3/incep/1_0/bn_scale <- conv4_3/incep/1_0
I0523 17:56:45.674561 30991 net.cpp:367] conv4_3/incep/1_0/bn_scale -> conv4_3/incep/1_0 (in-place)
I0523 17:56:45.674595 30991 layer_factory.hpp:77] Creating layer conv4_3/incep/1_0/bn_scale
I0523 17:56:45.674693 30991 net.cpp:122] Setting up conv4_3/incep/1_0/bn_scale
I0523 17:56:45.674700 30991 net.cpp:129] Top shape: 64 64 4 4 (65536)
I0523 17:56:45.674703 30991 net.cpp:137] Memory required for data: 184223232
I0523 17:56:45.674708 30991 layer_factory.hpp:77] Creating layer conv4_3/incep/1_0/relu
I0523 17:56:45.674712 30991 net.cpp:84] Creating Layer conv4_3/incep/1_0/relu
I0523 17:56:45.674715 30991 net.cpp:406] conv4_3/incep/1_0/relu <- conv4_3/incep/1_0
I0523 17:56:45.674721 30991 net.cpp:367] conv4_3/incep/1_0/relu -> conv4_3/incep/1_0 (in-place)
I0523 17:56:45.674851 30991 net.cpp:122] Setting up conv4_3/incep/1_0/relu
I0523 17:56:45.674861 30991 net.cpp:129] Top shape: 64 64 4 4 (65536)
I0523 17:56:45.674865 30991 net.cpp:137] Memory required for data: 184485376
I0523 17:56:45.674867 30991 layer_factory.hpp:77] Creating layer conv4_3/incep/2_reduce/conv
I0523 17:56:45.674873 30991 net.cpp:84] Creating Layer conv4_3/incep/2_reduce/conv
I0523 17:56:45.674876 30991 net.cpp:406] conv4_3/incep/2_reduce/conv <- conv4_2_conv4_2_0_split_2
I0523 17:56:45.674882 30991 net.cpp:380] conv4_3/incep/2_reduce/conv -> conv4_3/incep/2_reduce
I0523 17:56:45.675727 30991 net.cpp:122] Setting up conv4_3/incep/2_reduce/conv
I0523 17:56:45.675740 30991 net.cpp:129] Top shape: 64 12 4 4 (12288)
I0523 17:56:45.675742 30991 net.cpp:137] Memory required for data: 184534528
I0523 17:56:45.675746 30991 layer_factory.hpp:77] Creating layer conv4_3/incep/2_reduce/bn
I0523 17:56:45.675752 30991 net.cpp:84] Creating Layer conv4_3/incep/2_reduce/bn
I0523 17:56:45.675756 30991 net.cpp:406] conv4_3/incep/2_reduce/bn <- conv4_3/incep/2_reduce
I0523 17:56:45.675761 30991 net.cpp:367] conv4_3/incep/2_reduce/bn -> conv4_3/incep/2_reduce (in-place)
I0523 17:56:45.675931 30991 net.cpp:122] Setting up conv4_3/incep/2_reduce/bn
I0523 17:56:45.675940 30991 net.cpp:129] Top shape: 64 12 4 4 (12288)
I0523 17:56:45.675942 30991 net.cpp:137] Memory required for data: 184583680
I0523 17:56:45.675947 30991 layer_factory.hpp:77] Creating layer conv4_3/incep/2_reduce/bn_scale
I0523 17:56:45.675953 30991 net.cpp:84] Creating Layer conv4_3/incep/2_reduce/bn_scale
I0523 17:56:45.675956 30991 net.cpp:406] conv4_3/incep/2_reduce/bn_scale <- conv4_3/incep/2_reduce
I0523 17:56:45.675961 30991 net.cpp:367] conv4_3/incep/2_reduce/bn_scale -> conv4_3/incep/2_reduce (in-place)
I0523 17:56:45.675993 30991 layer_factory.hpp:77] Creating layer conv4_3/incep/2_reduce/bn_scale
I0523 17:56:45.676095 30991 net.cpp:122] Setting up conv4_3/incep/2_reduce/bn_scale
I0523 17:56:45.676102 30991 net.cpp:129] Top shape: 64 12 4 4 (12288)
I0523 17:56:45.676105 30991 net.cpp:137] Memory required for data: 184632832
I0523 17:56:45.676110 30991 layer_factory.hpp:77] Creating layer conv4_3/incep/2_reduce/relu
I0523 17:56:45.676116 30991 net.cpp:84] Creating Layer conv4_3/incep/2_reduce/relu
I0523 17:56:45.676120 30991 net.cpp:406] conv4_3/incep/2_reduce/relu <- conv4_3/incep/2_reduce
I0523 17:56:45.676123 30991 net.cpp:367] conv4_3/incep/2_reduce/relu -> conv4_3/incep/2_reduce (in-place)
I0523 17:56:45.676257 30991 net.cpp:122] Setting up conv4_3/incep/2_reduce/relu
I0523 17:56:45.676266 30991 net.cpp:129] Top shape: 64 12 4 4 (12288)
I0523 17:56:45.676272 30991 net.cpp:137] Memory required for data: 184681984
I0523 17:56:45.676275 30991 layer_factory.hpp:77] Creating layer conv4_3/incep/2_0/conv
I0523 17:56:45.676282 30991 net.cpp:84] Creating Layer conv4_3/incep/2_0/conv
I0523 17:56:45.676285 30991 net.cpp:406] conv4_3/incep/2_0/conv <- conv4_3/incep/2_reduce
I0523 17:56:45.676290 30991 net.cpp:380] conv4_3/incep/2_0/conv -> conv4_3/incep/2_0
I0523 17:56:45.677134 30991 net.cpp:122] Setting up conv4_3/incep/2_0/conv
I0523 17:56:45.677146 30991 net.cpp:129] Top shape: 64 24 4 4 (24576)
I0523 17:56:45.677150 30991 net.cpp:137] Memory required for data: 184780288
I0523 17:56:45.677155 30991 layer_factory.hpp:77] Creating layer conv4_3/incep/2_0/bn
I0523 17:56:45.677160 30991 net.cpp:84] Creating Layer conv4_3/incep/2_0/bn
I0523 17:56:45.677163 30991 net.cpp:406] conv4_3/incep/2_0/bn <- conv4_3/incep/2_0
I0523 17:56:45.677168 30991 net.cpp:367] conv4_3/incep/2_0/bn -> conv4_3/incep/2_0 (in-place)
I0523 17:56:45.677336 30991 net.cpp:122] Setting up conv4_3/incep/2_0/bn
I0523 17:56:45.677342 30991 net.cpp:129] Top shape: 64 24 4 4 (24576)
I0523 17:56:45.677345 30991 net.cpp:137] Memory required for data: 184878592
I0523 17:56:45.677350 30991 layer_factory.hpp:77] Creating layer conv4_3/incep/2_0/bn_scale
I0523 17:56:45.677356 30991 net.cpp:84] Creating Layer conv4_3/incep/2_0/bn_scale
I0523 17:56:45.677358 30991 net.cpp:406] conv4_3/incep/2_0/bn_scale <- conv4_3/incep/2_0
I0523 17:56:45.677362 30991 net.cpp:367] conv4_3/incep/2_0/bn_scale -> conv4_3/incep/2_0 (in-place)
I0523 17:56:45.677394 30991 layer_factory.hpp:77] Creating layer conv4_3/incep/2_0/bn_scale
I0523 17:56:45.677487 30991 net.cpp:122] Setting up conv4_3/incep/2_0/bn_scale
I0523 17:56:45.677495 30991 net.cpp:129] Top shape: 64 24 4 4 (24576)
I0523 17:56:45.677497 30991 net.cpp:137] Memory required for data: 184976896
I0523 17:56:45.677501 30991 layer_factory.hpp:77] Creating layer conv4_3/incep/2_0/relu
I0523 17:56:45.677505 30991 net.cpp:84] Creating Layer conv4_3/incep/2_0/relu
I0523 17:56:45.677508 30991 net.cpp:406] conv4_3/incep/2_0/relu <- conv4_3/incep/2_0
I0523 17:56:45.677512 30991 net.cpp:367] conv4_3/incep/2_0/relu -> conv4_3/incep/2_0 (in-place)
I0523 17:56:45.677644 30991 net.cpp:122] Setting up conv4_3/incep/2_0/relu
I0523 17:56:45.677652 30991 net.cpp:129] Top shape: 64 24 4 4 (24576)
I0523 17:56:45.677655 30991 net.cpp:137] Memory required for data: 185075200
I0523 17:56:45.677659 30991 layer_factory.hpp:77] Creating layer conv4_3/incep/2_1/conv
I0523 17:56:45.677665 30991 net.cpp:84] Creating Layer conv4_3/incep/2_1/conv
I0523 17:56:45.677669 30991 net.cpp:406] conv4_3/incep/2_1/conv <- conv4_3/incep/2_0
I0523 17:56:45.677675 30991 net.cpp:380] conv4_3/incep/2_1/conv -> conv4_3/incep/2_1
I0523 17:56:45.678521 30991 net.cpp:122] Setting up conv4_3/incep/2_1/conv
I0523 17:56:45.678532 30991 net.cpp:129] Top shape: 64 24 4 4 (24576)
I0523 17:56:45.678536 30991 net.cpp:137] Memory required for data: 185173504
I0523 17:56:45.678540 30991 layer_factory.hpp:77] Creating layer conv4_3/incep/2_1/bn
I0523 17:56:45.678544 30991 net.cpp:84] Creating Layer conv4_3/incep/2_1/bn
I0523 17:56:45.678549 30991 net.cpp:406] conv4_3/incep/2_1/bn <- conv4_3/incep/2_1
I0523 17:56:45.678553 30991 net.cpp:367] conv4_3/incep/2_1/bn -> conv4_3/incep/2_1 (in-place)
I0523 17:56:45.678719 30991 net.cpp:122] Setting up conv4_3/incep/2_1/bn
I0523 17:56:45.678726 30991 net.cpp:129] Top shape: 64 24 4 4 (24576)
I0523 17:56:45.678730 30991 net.cpp:137] Memory required for data: 185271808
I0523 17:56:45.678735 30991 layer_factory.hpp:77] Creating layer conv4_3/incep/2_1/bn_scale
I0523 17:56:45.678740 30991 net.cpp:84] Creating Layer conv4_3/incep/2_1/bn_scale
I0523 17:56:45.678743 30991 net.cpp:406] conv4_3/incep/2_1/bn_scale <- conv4_3/incep/2_1
I0523 17:56:45.678747 30991 net.cpp:367] conv4_3/incep/2_1/bn_scale -> conv4_3/incep/2_1 (in-place)
I0523 17:56:45.678778 30991 layer_factory.hpp:77] Creating layer conv4_3/incep/2_1/bn_scale
I0523 17:56:45.678875 30991 net.cpp:122] Setting up conv4_3/incep/2_1/bn_scale
I0523 17:56:45.678884 30991 net.cpp:129] Top shape: 64 24 4 4 (24576)
I0523 17:56:45.678887 30991 net.cpp:137] Memory required for data: 185370112
I0523 17:56:45.678892 30991 layer_factory.hpp:77] Creating layer conv4_3/incep/2_1/relu
I0523 17:56:45.678896 30991 net.cpp:84] Creating Layer conv4_3/incep/2_1/relu
I0523 17:56:45.678900 30991 net.cpp:406] conv4_3/incep/2_1/relu <- conv4_3/incep/2_1
I0523 17:56:45.678905 30991 net.cpp:367] conv4_3/incep/2_1/relu -> conv4_3/incep/2_1 (in-place)
I0523 17:56:45.679304 30991 net.cpp:122] Setting up conv4_3/incep/2_1/relu
I0523 17:56:45.679314 30991 net.cpp:129] Top shape: 64 24 4 4 (24576)
I0523 17:56:45.679318 30991 net.cpp:137] Memory required for data: 185468416
I0523 17:56:45.679322 30991 layer_factory.hpp:77] Creating layer conv4_3/incep
I0523 17:56:45.679327 30991 net.cpp:84] Creating Layer conv4_3/incep
I0523 17:56:45.679332 30991 net.cpp:406] conv4_3/incep <- conv4_3/incep/0
I0523 17:56:45.679335 30991 net.cpp:406] conv4_3/incep <- conv4_3/incep/1_0
I0523 17:56:45.679339 30991 net.cpp:406] conv4_3/incep <- conv4_3/incep/2_1
I0523 17:56:45.679343 30991 net.cpp:380] conv4_3/incep -> conv4_3/incep
I0523 17:56:45.679368 30991 net.cpp:122] Setting up conv4_3/incep
I0523 17:56:45.679374 30991 net.cpp:129] Top shape: 64 120 4 4 (122880)
I0523 17:56:45.679378 30991 net.cpp:137] Memory required for data: 185959936
I0523 17:56:45.679380 30991 layer_factory.hpp:77] Creating layer conv4_3/out/conv
I0523 17:56:45.679388 30991 net.cpp:84] Creating Layer conv4_3/out/conv
I0523 17:56:45.679390 30991 net.cpp:406] conv4_3/out/conv <- conv4_3/incep
I0523 17:56:45.679396 30991 net.cpp:380] conv4_3/out/conv -> conv4_3/out
I0523 17:56:45.680359 30991 net.cpp:122] Setting up conv4_3/out/conv
I0523 17:56:45.680373 30991 net.cpp:129] Top shape: 64 128 4 4 (131072)
I0523 17:56:45.680377 30991 net.cpp:137] Memory required for data: 186484224
I0523 17:56:45.680382 30991 layer_factory.hpp:77] Creating layer conv4_3/out/bn
I0523 17:56:45.680388 30991 net.cpp:84] Creating Layer conv4_3/out/bn
I0523 17:56:45.680392 30991 net.cpp:406] conv4_3/out/bn <- conv4_3/out
I0523 17:56:45.680397 30991 net.cpp:367] conv4_3/out/bn -> conv4_3/out (in-place)
I0523 17:56:45.680568 30991 net.cpp:122] Setting up conv4_3/out/bn
I0523 17:56:45.680575 30991 net.cpp:129] Top shape: 64 128 4 4 (131072)
I0523 17:56:45.680578 30991 net.cpp:137] Memory required for data: 187008512
I0523 17:56:45.680583 30991 layer_factory.hpp:77] Creating layer conv4_3/out/bn_scale
I0523 17:56:45.680589 30991 net.cpp:84] Creating Layer conv4_3/out/bn_scale
I0523 17:56:45.680593 30991 net.cpp:406] conv4_3/out/bn_scale <- conv4_3/out
I0523 17:56:45.680598 30991 net.cpp:367] conv4_3/out/bn_scale -> conv4_3/out (in-place)
I0523 17:56:45.680632 30991 layer_factory.hpp:77] Creating layer conv4_3/out/bn_scale
I0523 17:56:45.680726 30991 net.cpp:122] Setting up conv4_3/out/bn_scale
I0523 17:56:45.680732 30991 net.cpp:129] Top shape: 64 128 4 4 (131072)
I0523 17:56:45.680734 30991 net.cpp:137] Memory required for data: 187532800
I0523 17:56:45.680738 30991 layer_factory.hpp:77] Creating layer conv4_3
I0523 17:56:45.680744 30991 net.cpp:84] Creating Layer conv4_3
I0523 17:56:45.680747 30991 net.cpp:406] conv4_3 <- conv4_3/out
I0523 17:56:45.680752 30991 net.cpp:406] conv4_3 <- conv4_2_conv4_2_0_split_3
I0523 17:56:45.680757 30991 net.cpp:380] conv4_3 -> conv4_3
I0523 17:56:45.680778 30991 net.cpp:122] Setting up conv4_3
I0523 17:56:45.680783 30991 net.cpp:129] Top shape: 64 128 4 4 (131072)
I0523 17:56:45.680786 30991 net.cpp:137] Memory required for data: 188057088
I0523 17:56:45.680789 30991 layer_factory.hpp:77] Creating layer conv4_3_conv4_3_0_split
I0523 17:56:45.680794 30991 net.cpp:84] Creating Layer conv4_3_conv4_3_0_split
I0523 17:56:45.680797 30991 net.cpp:406] conv4_3_conv4_3_0_split <- conv4_3
I0523 17:56:45.680802 30991 net.cpp:380] conv4_3_conv4_3_0_split -> conv4_3_conv4_3_0_split_0
I0523 17:56:45.680809 30991 net.cpp:380] conv4_3_conv4_3_0_split -> conv4_3_conv4_3_0_split_1
I0523 17:56:45.680814 30991 net.cpp:380] conv4_3_conv4_3_0_split -> conv4_3_conv4_3_0_split_2
I0523 17:56:45.680822 30991 net.cpp:380] conv4_3_conv4_3_0_split -> conv4_3_conv4_3_0_split_3
I0523 17:56:45.680871 30991 net.cpp:122] Setting up conv4_3_conv4_3_0_split
I0523 17:56:45.680877 30991 net.cpp:129] Top shape: 64 128 4 4 (131072)
I0523 17:56:45.680881 30991 net.cpp:129] Top shape: 64 128 4 4 (131072)
I0523 17:56:45.680884 30991 net.cpp:129] Top shape: 64 128 4 4 (131072)
I0523 17:56:45.680887 30991 net.cpp:129] Top shape: 64 128 4 4 (131072)
I0523 17:56:45.680891 30991 net.cpp:137] Memory required for data: 190154240
I0523 17:56:45.680892 30991 layer_factory.hpp:77] Creating layer conv4_4/incep/0/conv
I0523 17:56:45.680898 30991 net.cpp:84] Creating Layer conv4_4/incep/0/conv
I0523 17:56:45.680902 30991 net.cpp:406] conv4_4/incep/0/conv <- conv4_3_conv4_3_0_split_0
I0523 17:56:45.680905 30991 net.cpp:380] conv4_4/incep/0/conv -> conv4_4/incep/0
I0523 17:56:45.681498 30991 net.cpp:122] Setting up conv4_4/incep/0/conv
I0523 17:56:45.681507 30991 net.cpp:129] Top shape: 64 32 4 4 (32768)
I0523 17:56:45.681510 30991 net.cpp:137] Memory required for data: 190285312
I0523 17:56:45.681514 30991 layer_factory.hpp:77] Creating layer conv4_4/incep/0/bn
I0523 17:56:45.681519 30991 net.cpp:84] Creating Layer conv4_4/incep/0/bn
I0523 17:56:45.681524 30991 net.cpp:406] conv4_4/incep/0/bn <- conv4_4/incep/0
I0523 17:56:45.681527 30991 net.cpp:367] conv4_4/incep/0/bn -> conv4_4/incep/0 (in-place)
I0523 17:56:45.681697 30991 net.cpp:122] Setting up conv4_4/incep/0/bn
I0523 17:56:45.681704 30991 net.cpp:129] Top shape: 64 32 4 4 (32768)
I0523 17:56:45.681707 30991 net.cpp:137] Memory required for data: 190416384
I0523 17:56:45.681712 30991 layer_factory.hpp:77] Creating layer conv4_4/incep/0/bn_scale
I0523 17:56:45.681717 30991 net.cpp:84] Creating Layer conv4_4/incep/0/bn_scale
I0523 17:56:45.681720 30991 net.cpp:406] conv4_4/incep/0/bn_scale <- conv4_4/incep/0
I0523 17:56:45.681725 30991 net.cpp:367] conv4_4/incep/0/bn_scale -> conv4_4/incep/0 (in-place)
I0523 17:56:45.681758 30991 layer_factory.hpp:77] Creating layer conv4_4/incep/0/bn_scale
I0523 17:56:45.681856 30991 net.cpp:122] Setting up conv4_4/incep/0/bn_scale
I0523 17:56:45.681864 30991 net.cpp:129] Top shape: 64 32 4 4 (32768)
I0523 17:56:45.681866 30991 net.cpp:137] Memory required for data: 190547456
I0523 17:56:45.681870 30991 layer_factory.hpp:77] Creating layer conv4_4/incep/0/relu
I0523 17:56:45.681876 30991 net.cpp:84] Creating Layer conv4_4/incep/0/relu
I0523 17:56:45.681879 30991 net.cpp:406] conv4_4/incep/0/relu <- conv4_4/incep/0
I0523 17:56:45.681884 30991 net.cpp:367] conv4_4/incep/0/relu -> conv4_4/incep/0 (in-place)
I0523 17:56:45.682301 30991 net.cpp:122] Setting up conv4_4/incep/0/relu
I0523 17:56:45.682313 30991 net.cpp:129] Top shape: 64 32 4 4 (32768)
I0523 17:56:45.682317 30991 net.cpp:137] Memory required for data: 190678528
I0523 17:56:45.682320 30991 layer_factory.hpp:77] Creating layer conv4_4/incep/1_reduce/conv
I0523 17:56:45.682327 30991 net.cpp:84] Creating Layer conv4_4/incep/1_reduce/conv
I0523 17:56:45.682330 30991 net.cpp:406] conv4_4/incep/1_reduce/conv <- conv4_3_conv4_3_0_split_1
I0523 17:56:45.682335 30991 net.cpp:380] conv4_4/incep/1_reduce/conv -> conv4_4/incep/1_reduce
I0523 17:56:45.683218 30991 net.cpp:122] Setting up conv4_4/incep/1_reduce/conv
I0523 17:56:45.683229 30991 net.cpp:129] Top shape: 64 32 4 4 (32768)
I0523 17:56:45.683233 30991 net.cpp:137] Memory required for data: 190809600
I0523 17:56:45.683238 30991 layer_factory.hpp:77] Creating layer conv4_4/incep/1_reduce/bn
I0523 17:56:45.683243 30991 net.cpp:84] Creating Layer conv4_4/incep/1_reduce/bn
I0523 17:56:45.683246 30991 net.cpp:406] conv4_4/incep/1_reduce/bn <- conv4_4/incep/1_reduce
I0523 17:56:45.683251 30991 net.cpp:367] conv4_4/incep/1_reduce/bn -> conv4_4/incep/1_reduce (in-place)
I0523 17:56:45.683419 30991 net.cpp:122] Setting up conv4_4/incep/1_reduce/bn
I0523 17:56:45.683426 30991 net.cpp:129] Top shape: 64 32 4 4 (32768)
I0523 17:56:45.683429 30991 net.cpp:137] Memory required for data: 190940672
I0523 17:56:45.683439 30991 layer_factory.hpp:77] Creating layer conv4_4/incep/1_reduce/bn_scale
I0523 17:56:45.683444 30991 net.cpp:84] Creating Layer conv4_4/incep/1_reduce/bn_scale
I0523 17:56:45.683449 30991 net.cpp:406] conv4_4/incep/1_reduce/bn_scale <- conv4_4/incep/1_reduce
I0523 17:56:45.683452 30991 net.cpp:367] conv4_4/incep/1_reduce/bn_scale -> conv4_4/incep/1_reduce (in-place)
I0523 17:56:45.683485 30991 layer_factory.hpp:77] Creating layer conv4_4/incep/1_reduce/bn_scale
I0523 17:56:45.683585 30991 net.cpp:122] Setting up conv4_4/incep/1_reduce/bn_scale
I0523 17:56:45.683593 30991 net.cpp:129] Top shape: 64 32 4 4 (32768)
I0523 17:56:45.683595 30991 net.cpp:137] Memory required for data: 191071744
I0523 17:56:45.683600 30991 layer_factory.hpp:77] Creating layer conv4_4/incep/1_reduce/relu
I0523 17:56:45.683604 30991 net.cpp:84] Creating Layer conv4_4/incep/1_reduce/relu
I0523 17:56:45.683607 30991 net.cpp:406] conv4_4/incep/1_reduce/relu <- conv4_4/incep/1_reduce
I0523 17:56:45.683612 30991 net.cpp:367] conv4_4/incep/1_reduce/relu -> conv4_4/incep/1_reduce (in-place)
I0523 17:56:45.683744 30991 net.cpp:122] Setting up conv4_4/incep/1_reduce/relu
I0523 17:56:45.683753 30991 net.cpp:129] Top shape: 64 32 4 4 (32768)
I0523 17:56:45.683758 30991 net.cpp:137] Memory required for data: 191202816
I0523 17:56:45.683760 30991 layer_factory.hpp:77] Creating layer conv4_4/incep/1_0/conv
I0523 17:56:45.683765 30991 net.cpp:84] Creating Layer conv4_4/incep/1_0/conv
I0523 17:56:45.683768 30991 net.cpp:406] conv4_4/incep/1_0/conv <- conv4_4/incep/1_reduce
I0523 17:56:45.683774 30991 net.cpp:380] conv4_4/incep/1_0/conv -> conv4_4/incep/1_0
I0523 17:56:45.684697 30991 net.cpp:122] Setting up conv4_4/incep/1_0/conv
I0523 17:56:45.684710 30991 net.cpp:129] Top shape: 64 64 4 4 (65536)
I0523 17:56:45.684713 30991 net.cpp:137] Memory required for data: 191464960
I0523 17:56:45.684718 30991 layer_factory.hpp:77] Creating layer conv4_4/incep/1_0/bn
I0523 17:56:45.684723 30991 net.cpp:84] Creating Layer conv4_4/incep/1_0/bn
I0523 17:56:45.684727 30991 net.cpp:406] conv4_4/incep/1_0/bn <- conv4_4/incep/1_0
I0523 17:56:45.684732 30991 net.cpp:367] conv4_4/incep/1_0/bn -> conv4_4/incep/1_0 (in-place)
I0523 17:56:45.684900 30991 net.cpp:122] Setting up conv4_4/incep/1_0/bn
I0523 17:56:45.684907 30991 net.cpp:129] Top shape: 64 64 4 4 (65536)
I0523 17:56:45.684909 30991 net.cpp:137] Memory required for data: 191727104
I0523 17:56:45.684916 30991 layer_factory.hpp:77] Creating layer conv4_4/incep/1_0/bn_scale
I0523 17:56:45.684919 30991 net.cpp:84] Creating Layer conv4_4/incep/1_0/bn_scale
I0523 17:56:45.684922 30991 net.cpp:406] conv4_4/incep/1_0/bn_scale <- conv4_4/incep/1_0
I0523 17:56:45.684929 30991 net.cpp:367] conv4_4/incep/1_0/bn_scale -> conv4_4/incep/1_0 (in-place)
I0523 17:56:45.684963 30991 layer_factory.hpp:77] Creating layer conv4_4/incep/1_0/bn_scale
I0523 17:56:45.685058 30991 net.cpp:122] Setting up conv4_4/incep/1_0/bn_scale
I0523 17:56:45.685065 30991 net.cpp:129] Top shape: 64 64 4 4 (65536)
I0523 17:56:45.685068 30991 net.cpp:137] Memory required for data: 191989248
I0523 17:56:45.685072 30991 layer_factory.hpp:77] Creating layer conv4_4/incep/1_0/relu
I0523 17:56:45.685077 30991 net.cpp:84] Creating Layer conv4_4/incep/1_0/relu
I0523 17:56:45.685081 30991 net.cpp:406] conv4_4/incep/1_0/relu <- conv4_4/incep/1_0
I0523 17:56:45.685084 30991 net.cpp:367] conv4_4/incep/1_0/relu -> conv4_4/incep/1_0 (in-place)
I0523 17:56:45.685219 30991 net.cpp:122] Setting up conv4_4/incep/1_0/relu
I0523 17:56:45.685226 30991 net.cpp:129] Top shape: 64 64 4 4 (65536)
I0523 17:56:45.685230 30991 net.cpp:137] Memory required for data: 192251392
I0523 17:56:45.685232 30991 layer_factory.hpp:77] Creating layer conv4_4/incep/2_reduce/conv
I0523 17:56:45.685238 30991 net.cpp:84] Creating Layer conv4_4/incep/2_reduce/conv
I0523 17:56:45.685242 30991 net.cpp:406] conv4_4/incep/2_reduce/conv <- conv4_3_conv4_3_0_split_2
I0523 17:56:45.685247 30991 net.cpp:380] conv4_4/incep/2_reduce/conv -> conv4_4/incep/2_reduce
I0523 17:56:45.686100 30991 net.cpp:122] Setting up conv4_4/incep/2_reduce/conv
I0523 17:56:45.686111 30991 net.cpp:129] Top shape: 64 12 4 4 (12288)
I0523 17:56:45.686115 30991 net.cpp:137] Memory required for data: 192300544
I0523 17:56:45.686120 30991 layer_factory.hpp:77] Creating layer conv4_4/incep/2_reduce/bn
I0523 17:56:45.686125 30991 net.cpp:84] Creating Layer conv4_4/incep/2_reduce/bn
I0523 17:56:45.686127 30991 net.cpp:406] conv4_4/incep/2_reduce/bn <- conv4_4/incep/2_reduce
I0523 17:56:45.686132 30991 net.cpp:367] conv4_4/incep/2_reduce/bn -> conv4_4/incep/2_reduce (in-place)
I0523 17:56:45.686305 30991 net.cpp:122] Setting up conv4_4/incep/2_reduce/bn
I0523 17:56:45.686311 30991 net.cpp:129] Top shape: 64 12 4 4 (12288)
I0523 17:56:45.686314 30991 net.cpp:137] Memory required for data: 192349696
I0523 17:56:45.686319 30991 layer_factory.hpp:77] Creating layer conv4_4/incep/2_reduce/bn_scale
I0523 17:56:45.686323 30991 net.cpp:84] Creating Layer conv4_4/incep/2_reduce/bn_scale
I0523 17:56:45.686326 30991 net.cpp:406] conv4_4/incep/2_reduce/bn_scale <- conv4_4/incep/2_reduce
I0523 17:56:45.686331 30991 net.cpp:367] conv4_4/incep/2_reduce/bn_scale -> conv4_4/incep/2_reduce (in-place)
I0523 17:56:45.686363 30991 layer_factory.hpp:77] Creating layer conv4_4/incep/2_reduce/bn_scale
I0523 17:56:45.686460 30991 net.cpp:122] Setting up conv4_4/incep/2_reduce/bn_scale
I0523 17:56:45.686466 30991 net.cpp:129] Top shape: 64 12 4 4 (12288)
I0523 17:56:45.686470 30991 net.cpp:137] Memory required for data: 192398848
I0523 17:56:45.686473 30991 layer_factory.hpp:77] Creating layer conv4_4/incep/2_reduce/relu
I0523 17:56:45.686477 30991 net.cpp:84] Creating Layer conv4_4/incep/2_reduce/relu
I0523 17:56:45.686480 30991 net.cpp:406] conv4_4/incep/2_reduce/relu <- conv4_4/incep/2_reduce
I0523 17:56:45.686486 30991 net.cpp:367] conv4_4/incep/2_reduce/relu -> conv4_4/incep/2_reduce (in-place)
I0523 17:56:45.686879 30991 net.cpp:122] Setting up conv4_4/incep/2_reduce/relu
I0523 17:56:45.686889 30991 net.cpp:129] Top shape: 64 12 4 4 (12288)
I0523 17:56:45.686895 30991 net.cpp:137] Memory required for data: 192448000
I0523 17:56:45.686898 30991 layer_factory.hpp:77] Creating layer conv4_4/incep/2_0/conv
I0523 17:56:45.686904 30991 net.cpp:84] Creating Layer conv4_4/incep/2_0/conv
I0523 17:56:45.686908 30991 net.cpp:406] conv4_4/incep/2_0/conv <- conv4_4/incep/2_reduce
I0523 17:56:45.686913 30991 net.cpp:380] conv4_4/incep/2_0/conv -> conv4_4/incep/2_0
I0523 17:56:45.687777 30991 net.cpp:122] Setting up conv4_4/incep/2_0/conv
I0523 17:56:45.687788 30991 net.cpp:129] Top shape: 64 24 4 4 (24576)
I0523 17:56:45.687793 30991 net.cpp:137] Memory required for data: 192546304
I0523 17:56:45.687796 30991 layer_factory.hpp:77] Creating layer conv4_4/incep/2_0/bn
I0523 17:56:45.687803 30991 net.cpp:84] Creating Layer conv4_4/incep/2_0/bn
I0523 17:56:45.687806 30991 net.cpp:406] conv4_4/incep/2_0/bn <- conv4_4/incep/2_0
I0523 17:56:45.687810 30991 net.cpp:367] conv4_4/incep/2_0/bn -> conv4_4/incep/2_0 (in-place)
I0523 17:56:45.687981 30991 net.cpp:122] Setting up conv4_4/incep/2_0/bn
I0523 17:56:45.687988 30991 net.cpp:129] Top shape: 64 24 4 4 (24576)
I0523 17:56:45.687991 30991 net.cpp:137] Memory required for data: 192644608
I0523 17:56:45.687996 30991 layer_factory.hpp:77] Creating layer conv4_4/incep/2_0/bn_scale
I0523 17:56:45.688000 30991 net.cpp:84] Creating Layer conv4_4/incep/2_0/bn_scale
I0523 17:56:45.688004 30991 net.cpp:406] conv4_4/incep/2_0/bn_scale <- conv4_4/incep/2_0
I0523 17:56:45.688009 30991 net.cpp:367] conv4_4/incep/2_0/bn_scale -> conv4_4/incep/2_0 (in-place)
I0523 17:56:45.688041 30991 layer_factory.hpp:77] Creating layer conv4_4/incep/2_0/bn_scale
I0523 17:56:45.688148 30991 net.cpp:122] Setting up conv4_4/incep/2_0/bn_scale
I0523 17:56:45.688155 30991 net.cpp:129] Top shape: 64 24 4 4 (24576)
I0523 17:56:45.688158 30991 net.cpp:137] Memory required for data: 192742912
I0523 17:56:45.688163 30991 layer_factory.hpp:77] Creating layer conv4_4/incep/2_0/relu
I0523 17:56:45.688168 30991 net.cpp:84] Creating Layer conv4_4/incep/2_0/relu
I0523 17:56:45.688174 30991 net.cpp:406] conv4_4/incep/2_0/relu <- conv4_4/incep/2_0
I0523 17:56:45.688179 30991 net.cpp:367] conv4_4/incep/2_0/relu -> conv4_4/incep/2_0 (in-place)
I0523 17:56:45.688310 30991 net.cpp:122] Setting up conv4_4/incep/2_0/relu
I0523 17:56:45.688318 30991 net.cpp:129] Top shape: 64 24 4 4 (24576)
I0523 17:56:45.688321 30991 net.cpp:137] Memory required for data: 192841216
I0523 17:56:45.688324 30991 layer_factory.hpp:77] Creating layer conv4_4/incep/2_1/conv
I0523 17:56:45.688331 30991 net.cpp:84] Creating Layer conv4_4/incep/2_1/conv
I0523 17:56:45.688334 30991 net.cpp:406] conv4_4/incep/2_1/conv <- conv4_4/incep/2_0
I0523 17:56:45.688339 30991 net.cpp:380] conv4_4/incep/2_1/conv -> conv4_4/incep/2_1
I0523 17:56:45.689221 30991 net.cpp:122] Setting up conv4_4/incep/2_1/conv
I0523 17:56:45.689232 30991 net.cpp:129] Top shape: 64 24 4 4 (24576)
I0523 17:56:45.689236 30991 net.cpp:137] Memory required for data: 192939520
I0523 17:56:45.689240 30991 layer_factory.hpp:77] Creating layer conv4_4/incep/2_1/bn
I0523 17:56:45.689246 30991 net.cpp:84] Creating Layer conv4_4/incep/2_1/bn
I0523 17:56:45.689250 30991 net.cpp:406] conv4_4/incep/2_1/bn <- conv4_4/incep/2_1
I0523 17:56:45.689255 30991 net.cpp:367] conv4_4/incep/2_1/bn -> conv4_4/incep/2_1 (in-place)
I0523 17:56:45.689424 30991 net.cpp:122] Setting up conv4_4/incep/2_1/bn
I0523 17:56:45.689429 30991 net.cpp:129] Top shape: 64 24 4 4 (24576)
I0523 17:56:45.689432 30991 net.cpp:137] Memory required for data: 193037824
I0523 17:56:45.689437 30991 layer_factory.hpp:77] Creating layer conv4_4/incep/2_1/bn_scale
I0523 17:56:45.689442 30991 net.cpp:84] Creating Layer conv4_4/incep/2_1/bn_scale
I0523 17:56:45.689445 30991 net.cpp:406] conv4_4/incep/2_1/bn_scale <- conv4_4/incep/2_1
I0523 17:56:45.689450 30991 net.cpp:367] conv4_4/incep/2_1/bn_scale -> conv4_4/incep/2_1 (in-place)
I0523 17:56:45.689486 30991 layer_factory.hpp:77] Creating layer conv4_4/incep/2_1/bn_scale
I0523 17:56:45.689586 30991 net.cpp:122] Setting up conv4_4/incep/2_1/bn_scale
I0523 17:56:45.689594 30991 net.cpp:129] Top shape: 64 24 4 4 (24576)
I0523 17:56:45.689596 30991 net.cpp:137] Memory required for data: 193136128
I0523 17:56:45.689601 30991 layer_factory.hpp:77] Creating layer conv4_4/incep/2_1/relu
I0523 17:56:45.689605 30991 net.cpp:84] Creating Layer conv4_4/incep/2_1/relu
I0523 17:56:45.689609 30991 net.cpp:406] conv4_4/incep/2_1/relu <- conv4_4/incep/2_1
I0523 17:56:45.689612 30991 net.cpp:367] conv4_4/incep/2_1/relu -> conv4_4/incep/2_1 (in-place)
I0523 17:56:45.690011 30991 net.cpp:122] Setting up conv4_4/incep/2_1/relu
I0523 17:56:45.690021 30991 net.cpp:129] Top shape: 64 24 4 4 (24576)
I0523 17:56:45.690024 30991 net.cpp:137] Memory required for data: 193234432
I0523 17:56:45.690027 30991 layer_factory.hpp:77] Creating layer conv4_4/incep
I0523 17:56:45.690032 30991 net.cpp:84] Creating Layer conv4_4/incep
I0523 17:56:45.690035 30991 net.cpp:406] conv4_4/incep <- conv4_4/incep/0
I0523 17:56:45.690039 30991 net.cpp:406] conv4_4/incep <- conv4_4/incep/1_0
I0523 17:56:45.690043 30991 net.cpp:406] conv4_4/incep <- conv4_4/incep/2_1
I0523 17:56:45.690048 30991 net.cpp:380] conv4_4/incep -> conv4_4/incep
I0523 17:56:45.690073 30991 net.cpp:122] Setting up conv4_4/incep
I0523 17:56:45.690078 30991 net.cpp:129] Top shape: 64 120 4 4 (122880)
I0523 17:56:45.690081 30991 net.cpp:137] Memory required for data: 193725952
I0523 17:56:45.690083 30991 layer_factory.hpp:77] Creating layer conv4_4/out/conv
I0523 17:56:45.690091 30991 net.cpp:84] Creating Layer conv4_4/out/conv
I0523 17:56:45.690095 30991 net.cpp:406] conv4_4/out/conv <- conv4_4/incep
I0523 17:56:45.690099 30991 net.cpp:380] conv4_4/out/conv -> conv4_4/out
I0523 17:56:45.690742 30991 net.cpp:122] Setting up conv4_4/out/conv
I0523 17:56:45.690753 30991 net.cpp:129] Top shape: 64 128 4 4 (131072)
I0523 17:56:45.690757 30991 net.cpp:137] Memory required for data: 194250240
I0523 17:56:45.690760 30991 layer_factory.hpp:77] Creating layer conv4_4/out/bn
I0523 17:56:45.690764 30991 net.cpp:84] Creating Layer conv4_4/out/bn
I0523 17:56:45.690771 30991 net.cpp:406] conv4_4/out/bn <- conv4_4/out
I0523 17:56:45.690776 30991 net.cpp:367] conv4_4/out/bn -> conv4_4/out (in-place)
I0523 17:56:45.690937 30991 net.cpp:122] Setting up conv4_4/out/bn
I0523 17:56:45.690943 30991 net.cpp:129] Top shape: 64 128 4 4 (131072)
I0523 17:56:45.690946 30991 net.cpp:137] Memory required for data: 194774528
I0523 17:56:45.690951 30991 layer_factory.hpp:77] Creating layer conv4_4/out/bn_scale
I0523 17:56:45.690955 30991 net.cpp:84] Creating Layer conv4_4/out/bn_scale
I0523 17:56:45.690958 30991 net.cpp:406] conv4_4/out/bn_scale <- conv4_4/out
I0523 17:56:45.690963 30991 net.cpp:367] conv4_4/out/bn_scale -> conv4_4/out (in-place)
I0523 17:56:45.690994 30991 layer_factory.hpp:77] Creating layer conv4_4/out/bn_scale
I0523 17:56:45.691083 30991 net.cpp:122] Setting up conv4_4/out/bn_scale
I0523 17:56:45.691090 30991 net.cpp:129] Top shape: 64 128 4 4 (131072)
I0523 17:56:45.691093 30991 net.cpp:137] Memory required for data: 195298816
I0523 17:56:45.691097 30991 layer_factory.hpp:77] Creating layer conv4_4
I0523 17:56:45.691102 30991 net.cpp:84] Creating Layer conv4_4
I0523 17:56:45.691105 30991 net.cpp:406] conv4_4 <- conv4_4/out
I0523 17:56:45.691109 30991 net.cpp:406] conv4_4 <- conv4_3_conv4_3_0_split_3
I0523 17:56:45.691113 30991 net.cpp:380] conv4_4 -> conv4_4
I0523 17:56:45.691133 30991 net.cpp:122] Setting up conv4_4
I0523 17:56:45.691139 30991 net.cpp:129] Top shape: 64 128 4 4 (131072)
I0523 17:56:45.691143 30991 net.cpp:137] Memory required for data: 195823104
I0523 17:56:45.691145 30991 layer_factory.hpp:77] Creating layer fc6_
I0523 17:56:45.691150 30991 net.cpp:84] Creating Layer fc6_
I0523 17:56:45.691154 30991 net.cpp:406] fc6_ <- conv4_4
I0523 17:56:45.691159 30991 net.cpp:380] fc6_ -> fc6_
I0523 17:56:45.695662 30991 net.cpp:122] Setting up fc6_
I0523 17:56:45.695674 30991 net.cpp:129] Top shape: 64 256 (16384)
I0523 17:56:45.695677 30991 net.cpp:137] Memory required for data: 195888640
I0523 17:56:45.695683 30991 layer_factory.hpp:77] Creating layer relu6_
I0523 17:56:45.695739 30991 net.cpp:84] Creating Layer relu6_
I0523 17:56:45.695744 30991 net.cpp:406] relu6_ <- fc6_
I0523 17:56:45.695749 30991 net.cpp:367] relu6_ -> fc6_ (in-place)
I0523 17:56:45.696175 30991 net.cpp:122] Setting up relu6_
I0523 17:56:45.696187 30991 net.cpp:129] Top shape: 64 256 (16384)
I0523 17:56:45.696190 30991 net.cpp:137] Memory required for data: 195954176
I0523 17:56:45.696193 30991 layer_factory.hpp:77] Creating layer fc7_
I0523 17:56:45.696199 30991 net.cpp:84] Creating Layer fc7_
I0523 17:56:45.696202 30991 net.cpp:406] fc7_ <- fc6_
I0523 17:56:45.696208 30991 net.cpp:380] fc7_ -> fc7_
I0523 17:56:45.700839 30991 net.cpp:122] Setting up fc7_
I0523 17:56:45.700866 30991 net.cpp:129] Top shape: 64 2048 (131072)
I0523 17:56:45.700870 30991 net.cpp:137] Memory required for data: 196478464
I0523 17:56:45.700877 30991 layer_factory.hpp:77] Creating layer relu7_
I0523 17:56:45.700884 30991 net.cpp:84] Creating Layer relu7_
I0523 17:56:45.700889 30991 net.cpp:406] relu7_ <- fc7_
I0523 17:56:45.700894 30991 net.cpp:367] relu7_ -> fc7_ (in-place)
I0523 17:56:45.701071 30991 net.cpp:122] Setting up relu7_
I0523 17:56:45.701081 30991 net.cpp:129] Top shape: 64 2048 (131072)
I0523 17:56:45.701084 30991 net.cpp:137] Memory required for data: 197002752
I0523 17:56:45.701086 30991 layer_factory.hpp:77] Creating layer drop7_
I0523 17:56:45.701092 30991 net.cpp:84] Creating Layer drop7_
I0523 17:56:45.701095 30991 net.cpp:406] drop7_ <- fc7_
I0523 17:56:45.701099 30991 net.cpp:367] drop7_ -> fc7_ (in-place)
I0523 17:56:45.701123 30991 net.cpp:122] Setting up drop7_
I0523 17:56:45.701128 30991 net.cpp:129] Top shape: 64 2048 (131072)
I0523 17:56:45.701131 30991 net.cpp:137] Memory required for data: 197527040
I0523 17:56:45.701133 30991 layer_factory.hpp:77] Creating layer fc8_
I0523 17:56:45.701140 30991 net.cpp:84] Creating Layer fc8_
I0523 17:56:45.701143 30991 net.cpp:406] fc8_ <- fc7_
I0523 17:56:45.701148 30991 net.cpp:380] fc8_ -> fc8_
I0523 17:56:45.701470 30991 net.cpp:122] Setting up fc8_
I0523 17:56:45.701483 30991 net.cpp:129] Top shape: 64 15 (960)
I0523 17:56:45.701485 30991 net.cpp:137] Memory required for data: 197530880
I0523 17:56:45.701490 30991 layer_factory.hpp:77] Creating layer det_loss
I0523 17:56:45.702775 30991 net.cpp:84] Creating Layer det_loss
I0523 17:56:45.702785 30991 net.cpp:406] det_loss <- fc8_
I0523 17:56:45.702790 30991 net.cpp:406] det_loss <- label
I0523 17:56:45.702795 30991 net.cpp:380] det_loss -> loss_iou
I0523 17:56:45.702889 30991 net.cpp:122] Setting up det_loss
I0523 17:56:45.702898 30991 net.cpp:129] Top shape: 2 (2)
I0523 17:56:45.702900 30991 net.cpp:132]     with loss weight 1
I0523 17:56:45.702909 30991 net.cpp:137] Memory required for data: 197530888
I0523 17:56:45.702913 30991 net.cpp:198] det_loss needs backward computation.
I0523 17:56:45.702916 30991 net.cpp:198] fc8_ needs backward computation.
I0523 17:56:45.702919 30991 net.cpp:198] drop7_ needs backward computation.
I0523 17:56:45.702922 30991 net.cpp:198] relu7_ needs backward computation.
…
